ST Edge AI Core v2.2.0-20266 2adc00962
Created date          : 2026-01-23 10:53:57
Parameters            : generate --target stm32h7 --name network -m /home/vitordasilvadias/Downloads/plant_model_int8.tflite --compression none --verbosity 1 --workspace /tmp/mxAI_workspace8956307357142516673573210958586126 --output /home/vitordasilvadias/.stm32cubemx/network_output

Exec/report summary (generate)
-------------------------------------------------------------------------------------------------------------------------------------
model file         :   /home/vitordasilvadias/Downloads/plant_model_int8.tflite                                                      
type               :   tflite                                                                                                        
c_name             :   network                                                                                                       
compression        :   none                                                                                                          
options            :   allocate-inputs, allocate-outputs                                                                             
optimization       :   balanced                                                                                                      
target/series      :   stm32h7                                                                                                       
workspace dir      :   /tmp/mxAI_workspace8956307357142516673573210958586126                                                         
output dir         :   /home/vitordasilvadias/.stm32cubemx/network_output                                                            
model_fmt          :   sa/ua per tensor                                                                                              
model_name         :   plant_model_int8                                                                                              
model_hash         :   0xd7dd666890aa0383c4ac12390be0991a                                                                            
params #           :   471,399 items (481.18 KiB)                                                                                    
-------------------------------------------------------------------------------------------------------------------------------------
input 1/1          :   'serving_default_ke..ensor_1540', uint8(1x96x96x3), 27.00 KBytes, QLinear(1.000000000,0,uint8), activations   
output 1/1         :   'conversion_69', uint8(1x5), 5 Bytes, QLinear(0.003906250,0,uint8), activations                               
macc               :   10,880,794                                                                                                    
weights (ro)       :   492,732 B (481.18 KiB) (1 segment) / -1,392,864(-73.9%) vs float model                                        
activations (rw)   :   129,536 B (126.50 KiB) (1 segment) *                                                                          
ram (total)        :   129,536 B (126.50 KiB) = 129,536 + 0 + 0                                                                      
-------------------------------------------------------------------------------------------------------------------------------------
(*) 'input'/'output' buffers are allocated in the activations buffer

Model name - plant_model_int8
------ -------------------------------------------- ---------------------- ----------------- ----------- -------------------------------- --- --------------- ------------------- ---------------------- 
m_id   layer (type,original)                        oshape                 param/size               macc                     connected to   | c_size          c_macc              c_type                 
------ -------------------------------------------- ---------------------- ----------------- ----------- -------------------------------- --- --------------- ------------------- ---------------------- 
0      serving_default_ke..ensor_1540 (Input, )     [b:1,h:96,w:96,c:3]                                                                     |                 +55,296(+100.0%)    Conversion_[0]         
       conversion_0 (Conversion, QUANTIZE)          [b:1,h:96,w:96,c:3]                           55,296   serving_default_ke..ensor_1540   |                 -55,296(-100.0%)    
------ -------------------------------------------- ---------------------- ----------------- ----------- -------------------------------- --- --------------- ------------------- ---------------------- 
1      tfl_pseudo_qconst109 (Placeholder, )         []                     1/1                                                              |                 +27,648(+100.0%)    Eltwise/mul_[1]        
       eltwise_1 (Eltwise, MUL)                     [b:1,h:96,w:96,c:3]                           27,648                     conversion_0   |                 -27,648(-100.0%)    
                                                                                                                     tfl_pseudo_qconst109   | 
------ -------------------------------------------- ---------------------- ----------------- ----------- -------------------------------- --- --------------- ------------------- ---------------------- 
2      tfl_pseudo_qconst108 (Placeholder, )         []                     1/1                                                              |                 +27,648(+100.0%)    Eltwise/sub_[2]        
       eltwise_2 (Eltwise, SUB)                     [b:1,h:96,w:96,c:3]                           27,648                        eltwise_1   |                 -27,648(-100.0%)    
                                                                                                                     tfl_pseudo_qconst108   | 
------ -------------------------------------------- ---------------------- ----------------- ----------- -------------------------------- --- --------------- ------------------- ---------------------- 
3      conv2d_3 (Conv2D, CONV_2D)                   [b:1,h:48,w:48,c:16]   448/496               995,344                        eltwise_2   |                                     Conv2D_[3]             
       nl_3_nl (Nonlinearity, CONV_2D)              [b:1,h:48,w:48,c:16]                          36,864                         conv2d_3   |                 -36,864(-100.0%)    
------ -------------------------------------------- ---------------------- ----------------- ----------- -------------------------------- --- --------------- ------------------- ---------------------- 
4      conv2d_4 (Conv2D, DEPTHWISE_CONV_2D)         [b:1,h:48,w:48,c:16]   160/208               331,792                          nl_3_nl   |                                     Pad_/Conv2D_[4, 5]     
       nl_4_nl (Nonlinearity, DEPTHWISE_CONV_2D)    [b:1,h:48,w:48,c:16]                          36,864                         conv2d_4   |                 -36,864(-100.0%)    
------ -------------------------------------------- ---------------------- ----------------- ----------- -------------------------------- --- --------------- ------------------- ---------------------- 
5      conv2d_5 (Conv2D, CONV_2D)                   [b:1,h:48,w:48,c:8]    136/160               294,920                          nl_4_nl   |                                     Conv2D_[6]             
------ -------------------------------------------- ---------------------- ----------------- ----------- -------------------------------- --- --------------- ------------------- ---------------------- 
6      conv2d_6 (Conv2D, CONV_2D)                   [b:1,h:48,w:48,c:48]   432/576               884,784                         conv2d_5   |                                     Conv2D_[7]             
       nl_6_nl (Nonlinearity, CONV_2D)              [b:1,h:48,w:48,c:48]                         110,592                         conv2d_6   |                 -110,592(-100.0%)   
------ -------------------------------------------- ---------------------- ----------------- ----------- -------------------------------- --- --------------- ------------------- ---------------------- 
7      conv2d_7 (Conv2D, DEPTHWISE_CONV_2D)         [b:1,h:24,w:24,c:48]   480/624               248,880                          nl_6_nl   |                                     Pad_/Conv2D_[8, 9]     
       nl_7_nl (Nonlinearity, DEPTHWISE_CONV_2D)    [b:1,h:24,w:24,c:48]                          27,648                         conv2d_7   |                 -27,648(-100.0%)    
------ -------------------------------------------- ---------------------- ----------------- ----------- -------------------------------- --- --------------- ------------------- ---------------------- 
8      conv2d_8 (Conv2D, CONV_2D)                   [b:1,h:24,w:24,c:8]    392/416               221,192                          nl_7_nl   |                                     Conv2D_[10]            
------ -------------------------------------------- ---------------------- ----------------- ----------- -------------------------------- --- --------------- ------------------- ---------------------- 
9      conv2d_9 (Conv2D, CONV_2D)                   [b:1,h:24,w:24,c:48]   432/576               221,232                         conv2d_8   |                                     Conv2D_[11]            
       nl_9_nl (Nonlinearity, CONV_2D)              [b:1,h:24,w:24,c:48]                          27,648                         conv2d_9   |                 -27,648(-100.0%)    
------ -------------------------------------------- ---------------------- ----------------- ----------- -------------------------------- --- --------------- ------------------- ---------------------- 
10     conv2d_10 (Conv2D, DEPTHWISE_CONV_2D)        [b:1,h:24,w:24,c:48]   480/624               248,880                          nl_9_nl   |                                     Pad_/Conv2D_[12, 13]   
       nl_10_nl (Nonlinearity, DEPTHWISE_CONV_2D)   [b:1,h:24,w:24,c:48]                          27,648                        conv2d_10   |                 -27,648(-100.0%)    
------ -------------------------------------------- ---------------------- ----------------- ----------- -------------------------------- --- --------------- ------------------- ---------------------- 
11     conv2d_11 (Conv2D, CONV_2D)                  [b:1,h:24,w:24,c:8]    392/416               221,192                         nl_10_nl   |                                     Conv2D_[14]            
------ -------------------------------------------- ---------------------- ----------------- ----------- -------------------------------- --- --------------- ------------------- ---------------------- 
12     eltwise_12 (Eltwise, ADD)                    [b:1,h:24,w:24,c:8]                            4,608                         conv2d_8   |                                     Eltwise/add_[15]       
                                                                                                                                conv2d_11   | 
------ -------------------------------------------- ---------------------- ----------------- ----------- -------------------------------- --- --------------- ------------------- ---------------------- 
13     conv2d_13 (Conv2D, CONV_2D)                  [b:1,h:24,w:24,c:48]   432/576               221,232                       eltwise_12   |                                     Conv2D_[16]            
       nl_13_nl (Nonlinearity, CONV_2D)             [b:1,h:24,w:24,c:48]                          27,648                        conv2d_13   |                 -27,648(-100.0%)    
------ -------------------------------------------- ---------------------- ----------------- ----------- -------------------------------- --- --------------- ------------------- ---------------------- 
14     conv2d_14 (Conv2D, DEPTHWISE_CONV_2D)        [b:1,h:12,w:12,c:48]   480/624                62,256                         nl_13_nl   |                                     Pad_/Conv2D_[17, 18]   
       nl_14_nl (Nonlinearity, DEPTHWISE_CONV_2D)   [b:1,h:12,w:12,c:48]                           6,912                        conv2d_14   |                 -6,912(-100.0%)     
------ -------------------------------------------- ---------------------- ----------------- ----------- -------------------------------- --- --------------- ------------------- ---------------------- 
15     conv2d_15 (Conv2D, CONV_2D)                  [b:1,h:12,w:12,c:16]   784/832               110,608                         nl_14_nl   |                                     Conv2D_[19]            
------ -------------------------------------------- ---------------------- ----------------- ----------- -------------------------------- --- --------------- ------------------- ---------------------- 
16     conv2d_16 (Conv2D, CONV_2D)                  [b:1,h:12,w:12,c:96]   1,632/1,920           221,280                        conv2d_15   |                                     Conv2D_[20]            
       nl_16_nl (Nonlinearity, CONV_2D)             [b:1,h:12,w:12,c:96]                          13,824                        conv2d_16   |                 -13,824(-100.0%)    
------ -------------------------------------------- ---------------------- ----------------- ----------- -------------------------------- --- --------------- ------------------- ---------------------- 
17     conv2d_17 (Conv2D, DEPTHWISE_CONV_2D)        [b:1,h:12,w:12,c:96]   960/1,248             124,512                         nl_16_nl   |                                     Pad_/Conv2D_[21, 22]   
       nl_17_nl (Nonlinearity, DEPTHWISE_CONV_2D)   [b:1,h:12,w:12,c:96]                          13,824                        conv2d_17   |                 -13,824(-100.0%)    
------ -------------------------------------------- ---------------------- ----------------- ----------- -------------------------------- --- --------------- ------------------- ---------------------- 
18     conv2d_18 (Conv2D, CONV_2D)                  [b:1,h:12,w:12,c:16]   1,552/1,600           221,200                         nl_17_nl   |                                     Conv2D_[23]            
------ -------------------------------------------- ---------------------- ----------------- ----------- -------------------------------- --- --------------- ------------------- ---------------------- 
19     eltwise_19 (Eltwise, ADD)                    [b:1,h:12,w:12,c:16]                           2,304                        conv2d_15   |                                     Eltwise/add_[24]       
                                                                                                                                conv2d_18   | 
------ -------------------------------------------- ---------------------- ----------------- ----------- -------------------------------- --- --------------- ------------------- ---------------------- 
20     conv2d_20 (Conv2D, CONV_2D)                  [b:1,h:12,w:12,c:96]   1,632/1,920           221,280                       eltwise_19   |                                     Conv2D_[25]            
       nl_20_nl (Nonlinearity, CONV_2D)             [b:1,h:12,w:12,c:96]                          13,824                        conv2d_20   |                 -13,824(-100.0%)    
------ -------------------------------------------- ---------------------- ----------------- ----------- -------------------------------- --- --------------- ------------------- ---------------------- 
21     conv2d_21 (Conv2D, DEPTHWISE_CONV_2D)        [b:1,h:12,w:12,c:96]   960/1,248             124,512                         nl_20_nl   |                                     Pad_/Conv2D_[26, 27]   
       nl_21_nl (Nonlinearity, DEPTHWISE_CONV_2D)   [b:1,h:12,w:12,c:96]                          13,824                        conv2d_21   |                 -13,824(-100.0%)    
------ -------------------------------------------- ---------------------- ----------------- ----------- -------------------------------- --- --------------- ------------------- ---------------------- 
22     conv2d_22 (Conv2D, CONV_2D)                  [b:1,h:12,w:12,c:16]   1,552/1,600           221,200                         nl_21_nl   |                                     Conv2D_[28]            
------ -------------------------------------------- ---------------------- ----------------- ----------- -------------------------------- --- --------------- ------------------- ---------------------- 
23     eltwise_23 (Eltwise, ADD)                    [b:1,h:12,w:12,c:16]                           2,304                       eltwise_19   |                                     Eltwise/add_[29]       
                                                                                                                                conv2d_22   | 
------ -------------------------------------------- ---------------------- ----------------- ----------- -------------------------------- --- --------------- ------------------- ---------------------- 
24     conv2d_24 (Conv2D, CONV_2D)                  [b:1,h:12,w:12,c:96]   1,632/1,920           221,280                       eltwise_23   |                                     Conv2D_[30]            
       nl_24_nl (Nonlinearity, CONV_2D)             [b:1,h:12,w:12,c:96]                          13,824                        conv2d_24   |                 -13,824(-100.0%)    
------ -------------------------------------------- ---------------------- ----------------- ----------- -------------------------------- --- --------------- ------------------- ---------------------- 
25     conv2d_25 (Conv2D, DEPTHWISE_CONV_2D)        [b:1,h:6,w:6,c:96]     960/1,248              31,200                         nl_24_nl   |                                     Pad_/Conv2D_[31, 32]   
       nl_25_nl (Nonlinearity, DEPTHWISE_CONV_2D)   [b:1,h:6,w:6,c:96]                             3,456                        conv2d_25   |                 -3,456(-100.0%)     
------ -------------------------------------------- ---------------------- ----------------- ----------- -------------------------------- --- --------------- ------------------- ---------------------- 
26     conv2d_26 (Conv2D, CONV_2D)                  [b:1,h:6,w:6,c:24]     2,328/2,400            82,968                         nl_25_nl   |                                     Conv2D_[33]            
------ -------------------------------------------- ---------------------- ----------------- ----------- -------------------------------- --- --------------- ------------------- ---------------------- 
27     conv2d_27 (Conv2D, CONV_2D)                  [b:1,h:6,w:6,c:144]    3,600/4,032           124,560                        conv2d_26   |                                     Conv2D_[34]            
       nl_27_nl (Nonlinearity, CONV_2D)             [b:1,h:6,w:6,c:144]                            5,184                        conv2d_27   |                 -5,184(-100.0%)     
------ -------------------------------------------- ---------------------- ----------------- ----------- -------------------------------- --- --------------- ------------------- ---------------------- 
28     conv2d_28 (Conv2D, DEPTHWISE_CONV_2D)        [b:1,h:6,w:6,c:144]    1,440/1,872            46,800                         nl_27_nl   |                                     Pad_/Conv2D_[35, 36]   
       nl_28_nl (Nonlinearity, DEPTHWISE_CONV_2D)   [b:1,h:6,w:6,c:144]                            5,184                        conv2d_28   |                 -5,184(-100.0%)     
------ -------------------------------------------- ---------------------- ----------------- ----------- -------------------------------- --- --------------- ------------------- ---------------------- 
29     conv2d_29 (Conv2D, CONV_2D)                  [b:1,h:6,w:6,c:24]     3,480/3,552           124,440                         nl_28_nl   |                                     Conv2D_[37]            
------ -------------------------------------------- ---------------------- ----------------- ----------- -------------------------------- --- --------------- ------------------- ---------------------- 
30     eltwise_30 (Eltwise, ADD)                    [b:1,h:6,w:6,c:24]                               864                        conv2d_26   |                                     Eltwise/add_[38]       
                                                                                                                                conv2d_29   | 
------ -------------------------------------------- ---------------------- ----------------- ----------- -------------------------------- --- --------------- ------------------- ---------------------- 
31     conv2d_31 (Conv2D, CONV_2D)                  [b:1,h:6,w:6,c:144]    3,600/4,032           124,560                       eltwise_30   |                                     Conv2D_[39]            
       nl_31_nl (Nonlinearity, CONV_2D)             [b:1,h:6,w:6,c:144]                            5,184                        conv2d_31   |                 -5,184(-100.0%)     
------ -------------------------------------------- ---------------------- ----------------- ----------- -------------------------------- --- --------------- ------------------- ---------------------- 
32     conv2d_32 (Conv2D, DEPTHWISE_CONV_2D)        [b:1,h:6,w:6,c:144]    1,440/1,872            46,800                         nl_31_nl   |                                     Pad_/Conv2D_[40, 41]   
       nl_32_nl (Nonlinearity, DEPTHWISE_CONV_2D)   [b:1,h:6,w:6,c:144]                            5,184                        conv2d_32   |                 -5,184(-100.0%)     
------ -------------------------------------------- ---------------------- ----------------- ----------- -------------------------------- --- --------------- ------------------- ---------------------- 
33     conv2d_33 (Conv2D, CONV_2D)                  [b:1,h:6,w:6,c:24]     3,480/3,552           124,440                         nl_32_nl   |                                     Conv2D_[42]            
------ -------------------------------------------- ---------------------- ----------------- ----------- -------------------------------- --- --------------- ------------------- ---------------------- 
34     eltwise_34 (Eltwise, ADD)                    [b:1,h:6,w:6,c:24]                               864                       eltwise_30   |                                     Eltwise/add_[43]       
                                                                                                                                conv2d_33   | 
------ -------------------------------------------- ---------------------- ----------------- ----------- -------------------------------- --- --------------- ------------------- ---------------------- 
35     conv2d_35 (Conv2D, CONV_2D)                  [b:1,h:6,w:6,c:144]    3,600/4,032           124,560                       eltwise_34   |                                     Conv2D_[44]            
       nl_35_nl (Nonlinearity, CONV_2D)             [b:1,h:6,w:6,c:144]                            5,184                        conv2d_35   |                 -5,184(-100.0%)     
------ -------------------------------------------- ---------------------- ----------------- ----------- -------------------------------- --- --------------- ------------------- ---------------------- 
36     conv2d_36 (Conv2D, DEPTHWISE_CONV_2D)        [b:1,h:6,w:6,c:144]    1,440/1,872            46,800                         nl_35_nl   |                                     Pad_/Conv2D_[45, 46]   
       nl_36_nl (Nonlinearity, DEPTHWISE_CONV_2D)   [b:1,h:6,w:6,c:144]                            5,184                        conv2d_36   |                 -5,184(-100.0%)     
------ -------------------------------------------- ---------------------- ----------------- ----------- -------------------------------- --- --------------- ------------------- ---------------------- 
37     conv2d_37 (Conv2D, CONV_2D)                  [b:1,h:6,w:6,c:24]     3,480/3,552           124,440                         nl_36_nl   |                                     Conv2D_[47]            
------ -------------------------------------------- ---------------------- ----------------- ----------- -------------------------------- --- --------------- ------------------- ---------------------- 
38     eltwise_38 (Eltwise, ADD)                    [b:1,h:6,w:6,c:24]                               864                       eltwise_34   |                                     Eltwise/add_[48]       
                                                                                                                                conv2d_37   | 
------ -------------------------------------------- ---------------------- ----------------- ----------- -------------------------------- --- --------------- ------------------- ---------------------- 
39     conv2d_39 (Conv2D, CONV_2D)                  [b:1,h:6,w:6,c:144]    3,600/4,032           124,560                       eltwise_38   |                                     Conv2D_[49]            
       nl_39_nl (Nonlinearity, CONV_2D)             [b:1,h:6,w:6,c:144]                            5,184                        conv2d_39   |                 -5,184(-100.0%)     
------ -------------------------------------------- ---------------------- ----------------- ----------- -------------------------------- --- --------------- ------------------- ---------------------- 
40     conv2d_40 (Conv2D, DEPTHWISE_CONV_2D)        [b:1,h:6,w:6,c:144]    1,440/1,872            46,800                         nl_39_nl   |                                     Pad_/Conv2D_[50, 51]   
       nl_40_nl (Nonlinearity, DEPTHWISE_CONV_2D)   [b:1,h:6,w:6,c:144]                            5,184                        conv2d_40   |                 -5,184(-100.0%)     
------ -------------------------------------------- ---------------------- ----------------- ----------- -------------------------------- --- --------------- ------------------- ---------------------- 
41     conv2d_41 (Conv2D, CONV_2D)                  [b:1,h:6,w:6,c:32]     4,640/4,736           165,920                         nl_40_nl   |                                     Conv2D_[52]            
------ -------------------------------------------- ---------------------- ----------------- ----------- -------------------------------- --- --------------- ------------------- ---------------------- 
42     conv2d_42 (Conv2D, CONV_2D)                  [b:1,h:6,w:6,c:192]    6,336/6,912           221,376                        conv2d_41   |                                     Conv2D_[53]            
       nl_42_nl (Nonlinearity, CONV_2D)             [b:1,h:6,w:6,c:192]                            6,912                        conv2d_42   |                 -6,912(-100.0%)     
------ -------------------------------------------- ---------------------- ----------------- ----------- -------------------------------- --- --------------- ------------------- ---------------------- 
43     conv2d_43 (Conv2D, DEPTHWISE_CONV_2D)        [b:1,h:6,w:6,c:192]    1,920/2,496            62,400                         nl_42_nl   |                                     Pad_/Conv2D_[54, 55]   
       nl_43_nl (Nonlinearity, DEPTHWISE_CONV_2D)   [b:1,h:6,w:6,c:192]                            6,912                        conv2d_43   |                 -6,912(-100.0%)     
------ -------------------------------------------- ---------------------- ----------------- ----------- -------------------------------- --- --------------- ------------------- ---------------------- 
44     conv2d_44 (Conv2D, CONV_2D)                  [b:1,h:6,w:6,c:32]     6,176/6,272           221,216                         nl_43_nl   |                                     Conv2D_[56]            
------ -------------------------------------------- ---------------------- ----------------- ----------- -------------------------------- --- --------------- ------------------- ---------------------- 
45     eltwise_45 (Eltwise, ADD)                    [b:1,h:6,w:6,c:32]                             1,152                        conv2d_41   |                                     Eltwise/add_[57]       
                                                                                                                                conv2d_44   | 
------ -------------------------------------------- ---------------------- ----------------- ----------- -------------------------------- --- --------------- ------------------- ---------------------- 
46     conv2d_46 (Conv2D, CONV_2D)                  [b:1,h:6,w:6,c:192]    6,336/6,912           221,376                       eltwise_45   |                                     Conv2D_[58]            
       nl_46_nl (Nonlinearity, CONV_2D)             [b:1,h:6,w:6,c:192]                            6,912                        conv2d_46   |                 -6,912(-100.0%)     
------ -------------------------------------------- ---------------------- ----------------- ----------- -------------------------------- --- --------------- ------------------- ---------------------- 
47     conv2d_47 (Conv2D, DEPTHWISE_CONV_2D)        [b:1,h:6,w:6,c:192]    1,920/2,496            62,400                         nl_46_nl   |                                     Pad_/Conv2D_[59, 60]   
       nl_47_nl (Nonlinearity, DEPTHWISE_CONV_2D)   [b:1,h:6,w:6,c:192]                            6,912                        conv2d_47   |                 -6,912(-100.0%)     
------ -------------------------------------------- ---------------------- ----------------- ----------- -------------------------------- --- --------------- ------------------- ---------------------- 
48     conv2d_48 (Conv2D, CONV_2D)                  [b:1,h:6,w:6,c:32]     6,176/6,272           221,216                         nl_47_nl   |                                     Conv2D_[61]            
------ -------------------------------------------- ---------------------- ----------------- ----------- -------------------------------- --- --------------- ------------------- ---------------------- 
49     eltwise_49 (Eltwise, ADD)                    [b:1,h:6,w:6,c:32]                             1,152                       eltwise_45   |                                     Eltwise/add_[62]       
                                                                                                                                conv2d_48   | 
------ -------------------------------------------- ---------------------- ----------------- ----------- -------------------------------- --- --------------- ------------------- ---------------------- 
50     conv2d_50 (Conv2D, CONV_2D)                  [b:1,h:6,w:6,c:192]    6,336/6,912           221,376                       eltwise_49   |                                     Conv2D_[63]            
       nl_50_nl (Nonlinearity, CONV_2D)             [b:1,h:6,w:6,c:192]                            6,912                        conv2d_50   |                 -6,912(-100.0%)     
------ -------------------------------------------- ---------------------- ----------------- ----------- -------------------------------- --- --------------- ------------------- ---------------------- 
51     conv2d_51 (Conv2D, DEPTHWISE_CONV_2D)        [b:1,h:3,w:3,c:192]    1,920/2,496            15,744                         nl_50_nl   |                                     Pad_/Conv2D_[64, 65]   
       nl_51_nl (Nonlinearity, DEPTHWISE_CONV_2D)   [b:1,h:3,w:3,c:192]                            1,728                        conv2d_51   |                 -1,728(-100.0%)     
------ -------------------------------------------- ---------------------- ----------------- ----------- -------------------------------- --- --------------- ------------------- ---------------------- 
52     conv2d_52 (Conv2D, CONV_2D)                  [b:1,h:3,w:3,c:56]     10,808/10,976          96,824                         nl_51_nl   |                                     Conv2D_[66]            
------ -------------------------------------------- ---------------------- ----------------- ----------- -------------------------------- --- --------------- ------------------- ---------------------- 
53     conv2d_53 (Conv2D, CONV_2D)                  [b:1,h:3,w:3,c:336]    19,152/20,160         169,680                        conv2d_52   |                                     Conv2D_[67]            
       nl_53_nl (Nonlinearity, CONV_2D)             [b:1,h:3,w:3,c:336]                            3,024                        conv2d_53   |                 -3,024(-100.0%)     
------ -------------------------------------------- ---------------------- ----------------- ----------- -------------------------------- --- --------------- ------------------- ---------------------- 
54     conv2d_54 (Conv2D, DEPTHWISE_CONV_2D)        [b:1,h:3,w:3,c:336]    3,360/4,368            27,552                         nl_53_nl   |                                     Pad_/Conv2D_[68, 69]   
       nl_54_nl (Nonlinearity, DEPTHWISE_CONV_2D)   [b:1,h:3,w:3,c:336]                            3,024                        conv2d_54   |                 -3,024(-100.0%)     
------ -------------------------------------------- ---------------------- ----------------- ----------- -------------------------------- --- --------------- ------------------- ---------------------- 
55     conv2d_55 (Conv2D, CONV_2D)                  [b:1,h:3,w:3,c:56]     18,872/19,040         169,400                         nl_54_nl   |                                     Conv2D_[70]            
------ -------------------------------------------- ---------------------- ----------------- ----------- -------------------------------- --- --------------- ------------------- ---------------------- 
56     eltwise_56 (Eltwise, ADD)                    [b:1,h:3,w:3,c:56]                               504                        conv2d_52   |                                     Eltwise/add_[71]       
                                                                                                                                conv2d_55   | 
------ -------------------------------------------- ---------------------- ----------------- ----------- -------------------------------- --- --------------- ------------------- ---------------------- 
57     conv2d_57 (Conv2D, CONV_2D)                  [b:1,h:3,w:3,c:336]    19,152/20,160         169,680                       eltwise_56   |                                     Conv2D_[72]            
       nl_57_nl (Nonlinearity, CONV_2D)             [b:1,h:3,w:3,c:336]                            3,024                        conv2d_57   |                 -3,024(-100.0%)     
------ -------------------------------------------- ---------------------- ----------------- ----------- -------------------------------- --- --------------- ------------------- ---------------------- 
58     conv2d_58 (Conv2D, DEPTHWISE_CONV_2D)        [b:1,h:3,w:3,c:336]    3,360/4,368            27,552                         nl_57_nl   |                                     Pad_/Conv2D_[73, 74]   
       nl_58_nl (Nonlinearity, DEPTHWISE_CONV_2D)   [b:1,h:3,w:3,c:336]                            3,024                        conv2d_58   |                 -3,024(-100.0%)     
------ -------------------------------------------- ---------------------- ----------------- ----------- -------------------------------- --- --------------- ------------------- ---------------------- 
59     conv2d_59 (Conv2D, CONV_2D)                  [b:1,h:3,w:3,c:56]     18,872/19,040         169,400                         nl_58_nl   |                                     Conv2D_[75]            
------ -------------------------------------------- ---------------------- ----------------- ----------- -------------------------------- --- --------------- ------------------- ---------------------- 
60     eltwise_60 (Eltwise, ADD)                    [b:1,h:3,w:3,c:56]                               504                       eltwise_56   |                                     Eltwise/add_[76]       
                                                                                                                                conv2d_59   | 
------ -------------------------------------------- ---------------------- ----------------- ----------- -------------------------------- --- --------------- ------------------- ---------------------- 
61     conv2d_61 (Conv2D, CONV_2D)                  [b:1,h:3,w:3,c:336]    19,152/20,160         169,680                       eltwise_60   |                                     Conv2D_[77]            
       nl_61_nl (Nonlinearity, CONV_2D)             [b:1,h:3,w:3,c:336]                            3,024                        conv2d_61   |                 -3,024(-100.0%)     
------ -------------------------------------------- ---------------------- ----------------- ----------- -------------------------------- --- --------------- ------------------- ---------------------- 
62     conv2d_62 (Conv2D, DEPTHWISE_CONV_2D)        [b:1,h:3,w:3,c:336]    3,360/4,368            27,552                         nl_61_nl   |                                     Pad_/Conv2D_[78, 79]   
       nl_62_nl (Nonlinearity, DEPTHWISE_CONV_2D)   [b:1,h:3,w:3,c:336]                            3,024                        conv2d_62   |                 -3,024(-100.0%)     
------ -------------------------------------------- ---------------------- ----------------- ----------- -------------------------------- --- --------------- ------------------- ---------------------- 
63     conv2d_63 (Conv2D, CONV_2D)                  [b:1,h:3,w:3,c:112]    37,744/38,080         338,800                         nl_62_nl   |                                     Conv2D_[80]            
------ -------------------------------------------- ---------------------- ----------------- ----------- -------------------------------- --- --------------- ------------------- ---------------------- 
64     conv2d_64 (Conv2D, CONV_2D)                  [b:1,h:3,w:3,c:1280]   144,640/148,480     1,291,520                        conv2d_63   |                                     Conv2D_[81]            
       nl_64_nl (Nonlinearity, CONV_2D)             [b:1,h:3,w:3,c:1280]                          11,520                        conv2d_64   |                 -11,520(-100.0%)    
------ -------------------------------------------- ---------------------- ----------------- ----------- -------------------------------- --- --------------- ------------------- ---------------------- 
65     pool_65 (Pool, MEAN)                         [b:1,h:1,w:1,c:1280]                          11,520                         nl_64_nl   |                                     Pool_[82]              
       reshape_65_reshape (Reshape, MEAN)           [b:1,c:1280]                                                                  pool_65   |                                     
------ -------------------------------------------- ---------------------- ----------------- ----------- -------------------------------- --- --------------- ------------------- ---------------------- 
66     tfl_pseudo_qconst3 (Placeholder, )           [b:64,c:1280]          81,920/81,920                                                    | +256(+0.3%)     +81,984(+100.0%)    Dense_[83]             
       tfl_pseudo_qconst2 (Placeholder, )           [b:64]                 64/256                                                           | -256(-100.0%)                       
       gemm_66 (Gemm, FULLY_CONNECTED)              [b:1,c:64]                                    81,984               reshape_65_reshape   |                 -81,984(-100.0%)    
                                                                                                                       tfl_pseudo_qconst3   | 
                                                                                                                       tfl_pseudo_qconst2   | 
       nl_66_nl (Nonlinearity, FULLY_CONNECTED)     [b:1,c:64]                                        64                          gemm_66   |                 -64(-100.0%)        
------ -------------------------------------------- ---------------------- ----------------- ----------- -------------------------------- --- --------------- ------------------- ---------------------- 
67     tfl_pseudo_qconst1 (Placeholder, )           [b:5,c:64]             320/320                                                          | +20(+6.2%)      +325(+100.0%)       Dense_[84]             
       tfl_pseudo_qconst (Placeholder, )            [b:5]                  5/20                                                             | -20(-100.0%)                        
       gemm_67 (Gemm, FULLY_CONNECTED)              [b:1,c:5]                                        325                         nl_66_nl   |                 -325(-100.0%)       
                                                                                                                       tfl_pseudo_qconst1   | 
                                                                                                                        tfl_pseudo_qconst   | 
------ -------------------------------------------- ---------------------- ----------------- ----------- -------------------------------- --- --------------- ------------------- ---------------------- 
68     nl_68 (Nonlinearity, SOFTMAX)                [b:1,c:5]                                         75                          gemm_67   |                                     Nonlinearity_[85]      
------ -------------------------------------------- ---------------------- ----------------- ----------- -------------------------------- --- --------------- ------------------- ---------------------- 
69     conversion_69 (Conversion, QUANTIZE)         [b:1,c:5]                                         10                            nl_68   |                                     Conversion_[o][86]     
------ -------------------------------------------- ---------------------- ----------------- ----------- -------------------------------- --- --------------- ------------------- ---------------------- 
model/c-model: macc=11,362,682/10,880,794 -481,888(-4.2%) weights=492,726/492,732 +6(+0.0%) activations=--/129,536 io=--/0



Generated C-graph summary
------------------------------------------------------------------------------------------------------------------------
model name            : plant_model_int8
c-name                : network
c-node #              : 87
c-array #             : 253
activations size      : 129536 (1 segment)
weights size          : 492732 (1 segment)
macc                  : 10880794
inputs                : ['serving_default_keras_tensor_1540_output']
outputs               : ['conversion_69_output']

C-Arrays (253)
------ ------------------------------------------ --------------- ------------------------- ----------- --------- 
c_id   name (*_array)                             item/size       domain/mem-pool           c-type      comment   
------ ------------------------------------------ --------------- ------------------------- ----------- --------- 
0      conv2d_10_bias                             48/192          weights/weights           const s32             
1      conv2d_10_output                           27648/27648     activations/**default**   s8                    
2      conv2d_10_pad_before_output                32448/32448     activations/**default**   s8                    
3      conv2d_10_scratch0                         1777/1777       activations/**default**   s8                    
4      conv2d_10_weights                          432/432         weights/weights           const s8              
5      conv2d_11_bias                             8/32            weights/weights           const s32             
6      conv2d_11_output                           4608/4608       activations/**default**   s8                    
7      conv2d_11_scratch0                         272/272         activations/**default**   s8                    
8      conv2d_11_weights                          384/384         weights/weights           const s8              
9      conv2d_13_bias                             48/192          weights/weights           const s32             
10     conv2d_13_output                           27648/27648     activations/**default**   s8                    
11     conv2d_13_scratch0                         512/512         activations/**default**   s8                    
12     conv2d_13_weights                          384/384         weights/weights           const s8              
13     conv2d_14_bias                             48/192          weights/weights           const s32             
14     conv2d_14_output                           6912/6912       activations/**default**   s8                    
15     conv2d_14_pad_before_output                32448/32448     activations/**default**   s8                    
16     conv2d_14_scratch0                         1777/1777       activations/**default**   s8                    
17     conv2d_14_weights                          432/432         weights/weights           const s8              
18     conv2d_15_bias                             16/64           weights/weights           const s32             
19     conv2d_15_output                           2304/2304       activations/**default**   s8                    
20     conv2d_15_scratch0                         352/352         activations/**default**   s8                    
21     conv2d_15_weights                          768/768         weights/weights           const s8              
22     conv2d_16_bias                             96/384          weights/weights           const s32             
23     conv2d_16_output                           13824/13824     activations/**default**   s8                    
24     conv2d_16_scratch0                         1024/1024       activations/**default**   s8                    
25     conv2d_16_weights                          1536/1536       weights/weights           const s8              
26     conv2d_17_bias                             96/384          weights/weights           const s32             
27     conv2d_17_output                           13824/13824     activations/**default**   s8                    
28     conv2d_17_pad_before_output                18816/18816     activations/**default**   s8                    
29     conv2d_17_scratch0                         3553/3553       activations/**default**   s8                    
30     conv2d_17_weights                          864/864         weights/weights           const s8              
31     conv2d_18_bias                             16/64           weights/weights           const s32             
32     conv2d_18_output                           2304/2304       activations/**default**   s8                    
33     conv2d_18_scratch0                         544/544         activations/**default**   s8                    
34     conv2d_18_weights                          1536/1536       weights/weights           const s8              
35     conv2d_20_bias                             96/384          weights/weights           const s32             
36     conv2d_20_output                           13824/13824     activations/**default**   s8                    
37     conv2d_20_scratch0                         1024/1024       activations/**default**   s8                    
38     conv2d_20_weights                          1536/1536       weights/weights           const s8              
39     conv2d_21_bias                             96/384          weights/weights           const s32             
40     conv2d_21_output                           13824/13824     activations/**default**   s8                    
41     conv2d_21_pad_before_output                18816/18816     activations/**default**   s8                    
42     conv2d_21_scratch0                         3553/3553       activations/**default**   s8                    
43     conv2d_21_weights                          864/864         weights/weights           const s8              
44     conv2d_22_bias                             16/64           weights/weights           const s32             
45     conv2d_22_output                           2304/2304       activations/**default**   s8                    
46     conv2d_22_scratch0                         544/544         activations/**default**   s8                    
47     conv2d_22_weights                          1536/1536       weights/weights           const s8              
48     conv2d_24_bias                             96/384          weights/weights           const s32             
49     conv2d_24_output                           13824/13824     activations/**default**   s8                    
50     conv2d_24_scratch0                         1024/1024       activations/**default**   s8                    
51     conv2d_24_weights                          1536/1536       weights/weights           const s8              
52     conv2d_25_bias                             96/384          weights/weights           const s32             
53     conv2d_25_output                           3456/3456       activations/**default**   s8                    
54     conv2d_25_pad_before_output                18816/18816     activations/**default**   s8                    
55     conv2d_25_scratch0                         3553/3553       activations/**default**   s8                    
56     conv2d_25_weights                          864/864         weights/weights           const s8              
57     conv2d_26_bias                             24/96           weights/weights           const s32             
58     conv2d_26_output                           864/864         activations/**default**   s8                    
59     conv2d_26_scratch0                         624/624         activations/**default**   s8                    
60     conv2d_26_weights                          2304/2304       weights/weights           const s8              
61     conv2d_27_bias                             144/576         weights/weights           const s32             
62     conv2d_27_output                           5184/5184       activations/**default**   s8                    
63     conv2d_27_scratch0                         1536/1536       activations/**default**   s8                    
64     conv2d_27_weights                          3456/3456       weights/weights           const s8              
65     conv2d_28_bias                             144/576         weights/weights           const s32             
66     conv2d_28_output                           5184/5184       activations/**default**   s8                    
67     conv2d_28_pad_before_output                9216/9216       activations/**default**   s8                    
68     conv2d_28_scratch0                         5329/5329       activations/**default**   s8                    
69     conv2d_28_weights                          1296/1296       weights/weights           const s8              
70     conv2d_29_bias                             24/96           weights/weights           const s32             
71     conv2d_29_output                           864/864         activations/**default**   s8                    
72     conv2d_29_scratch0                         816/816         activations/**default**   s8                    
73     conv2d_29_weights                          3456/3456       weights/weights           const s8              
74     conv2d_31_bias                             144/576         weights/weights           const s32             
75     conv2d_31_output                           5184/5184       activations/**default**   s8                    
76     conv2d_31_scratch0                         1536/1536       activations/**default**   s8                    
77     conv2d_31_weights                          3456/3456       weights/weights           const s8              
78     conv2d_32_bias                             144/576         weights/weights           const s32             
79     conv2d_32_output                           5184/5184       activations/**default**   s8                    
80     conv2d_32_pad_before_output                9216/9216       activations/**default**   s8                    
81     conv2d_32_scratch0                         5329/5329       activations/**default**   s8                    
82     conv2d_32_weights                          1296/1296       weights/weights           const s8              
83     conv2d_33_bias                             24/96           weights/weights           const s32             
84     conv2d_33_output                           864/864         activations/**default**   s8                    
85     conv2d_33_scratch0                         816/816         activations/**default**   s8                    
86     conv2d_33_weights                          3456/3456       weights/weights           const s8              
87     conv2d_35_bias                             144/576         weights/weights           const s32             
88     conv2d_35_output                           5184/5184       activations/**default**   s8                    
89     conv2d_35_scratch0                         1536/1536       activations/**default**   s8                    
90     conv2d_35_weights                          3456/3456       weights/weights           const s8              
91     conv2d_36_bias                             144/576         weights/weights           const s32             
92     conv2d_36_output                           5184/5184       activations/**default**   s8                    
93     conv2d_36_pad_before_output                9216/9216       activations/**default**   s8                    
94     conv2d_36_scratch0                         5329/5329       activations/**default**   s8                    
95     conv2d_36_weights                          1296/1296       weights/weights           const s8              
96     conv2d_37_bias                             24/96           weights/weights           const s32             
97     conv2d_37_output                           864/864         activations/**default**   s8                    
98     conv2d_37_scratch0                         816/816         activations/**default**   s8                    
99     conv2d_37_weights                          3456/3456       weights/weights           const s8              
100    conv2d_39_bias                             144/576         weights/weights           const s32             
101    conv2d_39_output                           5184/5184       activations/**default**   s8                    
102    conv2d_39_scratch0                         1536/1536       activations/**default**   s8                    
103    conv2d_39_weights                          3456/3456       weights/weights           const s8              
104    conv2d_3_bias                              16/64           weights/weights           const s32             
105    conv2d_3_output                            36864/36864     activations/**default**   s8                    
106    conv2d_3_scratch0                          1196/1196       activations/**default**   s8                    
107    conv2d_3_weights                           432/432         weights/weights           const s8              
108    conv2d_40_bias                             144/576         weights/weights           const s32             
109    conv2d_40_output                           5184/5184       activations/**default**   s8                    
110    conv2d_40_pad_before_output                9216/9216       activations/**default**   s8                    
111    conv2d_40_scratch0                         5329/5329       activations/**default**   s8                    
112    conv2d_40_weights                          1296/1296       weights/weights           const s8              
113    conv2d_41_bias                             32/128          weights/weights           const s32             
114    conv2d_41_output                           1152/1152       activations/**default**   s8                    
115    conv2d_41_scratch0                         896/896         activations/**default**   s8                    
116    conv2d_41_weights                          4608/4608       weights/weights           const s8              
117    conv2d_42_bias                             192/768         weights/weights           const s32             
118    conv2d_42_output                           6912/6912       activations/**default**   s8                    
119    conv2d_42_scratch0                         2048/2048       activations/**default**   s8                    
120    conv2d_42_weights                          6144/6144       weights/weights           const s8              
121    conv2d_43_bias                             192/768         weights/weights           const s32             
122    conv2d_43_output                           6912/6912       activations/**default**   s8                    
123    conv2d_43_pad_before_output                12288/12288     activations/**default**   s8                    
124    conv2d_43_scratch0                         7105/7105       activations/**default**   s8                    
125    conv2d_43_weights                          1728/1728       weights/weights           const s8              
126    conv2d_44_bias                             32/128          weights/weights           const s32             
127    conv2d_44_output                           1152/1152       activations/**default**   s8                    
128    conv2d_44_scratch0                         1088/1088       activations/**default**   s8                    
129    conv2d_44_weights                          6144/6144       weights/weights           const s8              
130    conv2d_46_bias                             192/768         weights/weights           const s32             
131    conv2d_46_output                           6912/6912       activations/**default**   s8                    
132    conv2d_46_scratch0                         2048/2048       activations/**default**   s8                    
133    conv2d_46_weights                          6144/6144       weights/weights           const s8              
134    conv2d_47_bias                             192/768         weights/weights           const s32             
135    conv2d_47_output                           6912/6912       activations/**default**   s8                    
136    conv2d_47_pad_before_output                12288/12288     activations/**default**   s8                    
137    conv2d_47_scratch0                         7105/7105       activations/**default**   s8                    
138    conv2d_47_weights                          1728/1728       weights/weights           const s8              
139    conv2d_48_bias                             32/128          weights/weights           const s32             
140    conv2d_48_output                           1152/1152       activations/**default**   s8                    
141    conv2d_48_scratch0                         1088/1088       activations/**default**   s8                    
142    conv2d_48_weights                          6144/6144       weights/weights           const s8              
143    conv2d_4_bias                              16/64           weights/weights           const s32             
144    conv2d_4_output                            36864/36864     activations/**default**   s8                    
145    conv2d_4_pad_before_output                 40000/40000     activations/**default**   s8                    
146    conv2d_4_scratch0                          593/593         activations/**default**   s8                    
147    conv2d_4_weights                           144/144         weights/weights           const s8              
148    conv2d_50_bias                             192/768         weights/weights           const s32             
149    conv2d_50_output                           6912/6912       activations/**default**   s8                    
150    conv2d_50_scratch0                         2048/2048       activations/**default**   s8                    
151    conv2d_50_weights                          6144/6144       weights/weights           const s8              
152    conv2d_51_bias                             192/768         weights/weights           const s32             
153    conv2d_51_output                           1728/1728       activations/**default**   s8                    
154    conv2d_51_pad_before_output                12288/12288     activations/**default**   s8                    
155    conv2d_51_scratch0                         7105/7105       activations/**default**   s8                    
156    conv2d_51_weights                          1728/1728       weights/weights           const s8              
157    conv2d_52_bias                             56/224          weights/weights           const s32             
158    conv2d_52_output                           504/504         activations/**default**   s8                    
159    conv2d_52_scratch0                         1328/1328       activations/**default**   s8                    
160    conv2d_52_weights                          10752/10752     weights/weights           const s8              
161    conv2d_53_bias                             336/1344        weights/weights           const s32             
162    conv2d_53_output                           3024/3024       activations/**default**   s8                    
163    conv2d_53_scratch0                         3584/3584       activations/**default**   s8                    
164    conv2d_53_weights                          18816/18816     weights/weights           const s8              
165    conv2d_54_bias                             336/1344        weights/weights           const s32             
166    conv2d_54_output                           3024/3024       activations/**default**   s8                    
167    conv2d_54_pad_before_output                8400/8400       activations/**default**   s8                    
168    conv2d_54_scratch0                         12433/12433     activations/**default**   s8                    
169    conv2d_54_weights                          3024/3024       weights/weights           const s8              
170    conv2d_55_bias                             56/224          weights/weights           const s32             
171    conv2d_55_output                           504/504         activations/**default**   s8                    
172    conv2d_55_scratch0                         1904/1904       activations/**default**   s8                    
173    conv2d_55_weights                          18816/18816     weights/weights           const s8              
174    conv2d_57_bias                             336/1344        weights/weights           const s32             
175    conv2d_57_output                           3024/3024       activations/**default**   s8                    
176    conv2d_57_scratch0                         3584/3584       activations/**default**   s8                    
177    conv2d_57_weights                          18816/18816     weights/weights           const s8              
178    conv2d_58_bias                             336/1344        weights/weights           const s32             
179    conv2d_58_output                           3024/3024       activations/**default**   s8                    
180    conv2d_58_pad_before_output                8400/8400       activations/**default**   s8                    
181    conv2d_58_scratch0                         12433/12433     activations/**default**   s8                    
182    conv2d_58_weights                          3024/3024       weights/weights           const s8              
183    conv2d_59_bias                             56/224          weights/weights           const s32             
184    conv2d_59_output                           504/504         activations/**default**   s8                    
185    conv2d_59_scratch0                         1904/1904       activations/**default**   s8                    
186    conv2d_59_weights                          18816/18816     weights/weights           const s8              
187    conv2d_5_bias                              8/32            weights/weights           const s32             
188    conv2d_5_output                            18432/18432     activations/**default**   s8                    
189    conv2d_5_scratch0                          144/144         activations/**default**   s8                    
190    conv2d_5_weights                           128/128         weights/weights           const s8              
191    conv2d_61_bias                             336/1344        weights/weights           const s32             
192    conv2d_61_output                           3024/3024       activations/**default**   s8                    
193    conv2d_61_scratch0                         3584/3584       activations/**default**   s8                    
194    conv2d_61_weights                          18816/18816     weights/weights           const s8              
195    conv2d_62_bias                             336/1344        weights/weights           const s32             
196    conv2d_62_output                           3024/3024       activations/**default**   s8                    
197    conv2d_62_pad_before_output                8400/8400       activations/**default**   s8                    
198    conv2d_62_scratch0                         12433/12433     activations/**default**   s8                    
199    conv2d_62_weights                          3024/3024       weights/weights           const s8              
200    conv2d_63_bias                             112/448         weights/weights           const s32             
201    conv2d_63_output                           1008/1008       activations/**default**   s8                    
202    conv2d_63_scratch0                         2464/2464       activations/**default**   s8                    
203    conv2d_63_weights                          37632/37632     weights/weights           const s8              
204    conv2d_64_bias                             1280/5120       weights/weights           const s32             
205    conv2d_64_output                           11520/11520     activations/**default**   s8                    
206    conv2d_64_scratch0                         13248/13248     activations/**default**   s8                    
207    conv2d_64_weights                          143360/143360   weights/weights           const s8              
208    conv2d_6_bias                              48/192          weights/weights           const s32             
209    conv2d_6_output                            110592/110592   activations/**default**   s8                    
210    conv2d_6_scratch0                          512/512         activations/**default**   s8                    
211    conv2d_6_weights                           384/384         weights/weights           const s8              
212    conv2d_7_bias                              48/192          weights/weights           const s32             
213    conv2d_7_output                            27648/27648     activations/**default**   s8                    
214    conv2d_7_pad_before_output                 120000/120000   activations/**default**   s8                    
215    conv2d_7_scratch0                          1777/1777       activations/**default**   s8                    
216    conv2d_7_weights                           432/432         weights/weights           const s8              
217    conv2d_8_bias                              8/32            weights/weights           const s32             
218    conv2d_8_output                            4608/4608       activations/**default**   s8                    
219    conv2d_8_scratch0                          272/272         activations/**default**   s8                    
220    conv2d_8_weights                           384/384         weights/weights           const s8              
221    conv2d_9_bias                              48/192          weights/weights           const s32             
222    conv2d_9_output                            27648/27648     activations/**default**   s8                    
223    conv2d_9_scratch0                          512/512         activations/**default**   s8                    
224    conv2d_9_weights                           384/384         weights/weights           const s8              
225    conversion_0_output                        27648/27648     activations/**default**   s8                    
226    conversion_69_output                       5/5             activations/**default**   u8          /output   
227    eltwise_12_output                          4608/4608       activations/**default**   s8                    
228    eltwise_19_output                          2304/2304       activations/**default**   s8                    
229    eltwise_1_output                           27648/27648     activations/**default**   s8                    
230    eltwise_23_output                          2304/2304       activations/**default**   s8                    
231    eltwise_2_output                           27648/27649     activations/**default**   s8                    
232    eltwise_30_output                          864/864         activations/**default**   s8                    
233    eltwise_34_output                          864/864         activations/**default**   s8                    
234    eltwise_38_output                          864/864         activations/**default**   s8                    
235    eltwise_45_output                          1152/1152       activations/**default**   s8                    
236    eltwise_49_output                          1152/1152       activations/**default**   s8                    
237    eltwise_56_output                          504/504         activations/**default**   s8                    
238    eltwise_60_output                          504/504         activations/**default**   s8                    
239    gemm_66_bias                               64/256          weights/weights           const s32             
240    gemm_66_output                             64/64           activations/**default**   s8                    
241    gemm_66_scratch0                           1600/3200       activations/**default**   s16                   
242    gemm_66_weights                            81920/81920     weights/weights           const s8              
243    gemm_67_bias                               5/20            weights/weights           const s32             
244    gemm_67_output                             5/5             activations/**default**   s8                    
245    gemm_67_scratch0                           89/178          activations/**default**   s16                   
246    gemm_67_weights                            320/320         weights/weights           const s8              
247    nl_68_output                               5/5             activations/**default**   s8                    
248    nl_68_scratch0                             62/248          activations/**default**   s32                   
249    pool_65_output                             1280/1280       activations/**default**   s8                    
250    serving_default_keras_tensor_1540_output   27648/27648     activations/**default**   u8          /input    
251    tfl_pseudo_qconst108_4D                    1/1             weights/weights           const s8              
252    tfl_pseudo_qconst109_4D                    1/1             weights/weights           const s8              
------ ------------------------------------------ --------------- ------------------------- ----------- --------- 

C-Layers (87)
------ ---------------------- ---- --------------- --------- -------- --------------------------------------------- -------------------------- 
c_id   name (*_layer)         id   layer_type      macc      rom      tensors                                       shape (array id)           
------ ---------------------- ---- --------------- --------- -------- --------------------------------------------- -------------------------- 
0      conversion_0           0    Conversion      55296     0        I: serving_default_keras_tensor_1540_output   uint8(1x96x96x3) (250)     
                                                                      O: conversion_0_output                        int8(1x96x96x3) (225)      
------ ---------------------- ---- --------------- --------- -------- --------------------------------------------- -------------------------- 
1      eltwise_1              1    Eltwise/mul     27648     1        I: conversion_0_output                        int8(1x96x96x3) (225)      
                                                                      W: tfl_pseudo_qconst109_4D                    int8(1x1x1) (252)          
                                                                      O: eltwise_1_output                           int8(1x96x96x3) (229)      
------ ---------------------- ---- --------------- --------- -------- --------------------------------------------- -------------------------- 
2      eltwise_2              2    Eltwise/sub     27648     1        I: eltwise_1_output                           int8(1x96x96x3) (229)      
                                                                      W: tfl_pseudo_qconst108_4D                    int8(1x1x1) (251)          
                                                                      O: eltwise_2_output                           int8(1x96x96x3) (231)      
------ ---------------------- ---- --------------- --------- -------- --------------------------------------------- -------------------------- 
3      conv2d_3               3    Conv2D          995344    496      I: eltwise_2_output                           int8(1x96x96x3) (231)      
                                                                      S: conv2d_3_scratch0                                                     
                                                                      W: conv2d_3_weights                           int8(16x3x3x3) (107)       
                                                                      W: conv2d_3_bias                              int32(16) (104)            
                                                                      O: conv2d_3_output                            int8(1x48x48x16) (105)     
------ ---------------------- ---- --------------- --------- -------- --------------------------------------------- -------------------------- 
4      conv2d_4_pad_before    4    Pad             0         0        I: conv2d_3_output                            int8(1x48x48x16) (105)     
                                                                      O: conv2d_4_pad_before_output                 int8(1x50x50x16) (145)     
------ ---------------------- ---- --------------- --------- -------- --------------------------------------------- -------------------------- 
5      conv2d_4               4    Conv2D          331792    208      I: conv2d_4_pad_before_output                 int8(1x50x50x16) (145)     
                                                                      S: conv2d_4_scratch0                                                     
                                                                      W: conv2d_4_weights                           int8(1x3x3x16) (147)       
                                                                      W: conv2d_4_bias                              int32(16) (143)            
                                                                      O: conv2d_4_output                            int8(1x48x48x16) (144)     
------ ---------------------- ---- --------------- --------- -------- --------------------------------------------- -------------------------- 
6      conv2d_5               5    Conv2D          294920    160      I: conv2d_4_output                            int8(1x48x48x16) (144)     
                                                                      S: conv2d_5_scratch0                                                     
                                                                      W: conv2d_5_weights                           int8(8x1x1x16) (190)       
                                                                      W: conv2d_5_bias                              int32(8) (187)             
                                                                      O: conv2d_5_output                            int8(1x48x48x8) (188)      
------ ---------------------- ---- --------------- --------- -------- --------------------------------------------- -------------------------- 
7      conv2d_6               6    Conv2D          884784    576      I: conv2d_5_output                            int8(1x48x48x8) (188)      
                                                                      S: conv2d_6_scratch0                                                     
                                                                      W: conv2d_6_weights                           int8(48x1x1x8) (211)       
                                                                      W: conv2d_6_bias                              int32(48) (208)            
                                                                      O: conv2d_6_output                            int8(1x48x48x48) (209)     
------ ---------------------- ---- --------------- --------- -------- --------------------------------------------- -------------------------- 
8      conv2d_7_pad_before    7    Pad             0         0        I: conv2d_6_output                            int8(1x48x48x48) (209)     
                                                                      O: conv2d_7_pad_before_output                 int8(1x50x50x48) (214)     
------ ---------------------- ---- --------------- --------- -------- --------------------------------------------- -------------------------- 
9      conv2d_7               7    Conv2D          248880    624      I: conv2d_7_pad_before_output                 int8(1x50x50x48) (214)     
                                                                      S: conv2d_7_scratch0                                                     
                                                                      W: conv2d_7_weights                           int8(1x3x3x48) (216)       
                                                                      W: conv2d_7_bias                              int32(48) (212)            
                                                                      O: conv2d_7_output                            int8(1x24x24x48) (213)     
------ ---------------------- ---- --------------- --------- -------- --------------------------------------------- -------------------------- 
10     conv2d_8               8    Conv2D          221192    416      I: conv2d_7_output                            int8(1x24x24x48) (213)     
                                                                      S: conv2d_8_scratch0                                                     
                                                                      W: conv2d_8_weights                           int8(8x1x1x48) (220)       
                                                                      W: conv2d_8_bias                              int32(8) (217)             
                                                                      O: conv2d_8_output                            int8(1x24x24x8) (218)      
------ ---------------------- ---- --------------- --------- -------- --------------------------------------------- -------------------------- 
11     conv2d_9               9    Conv2D          221232    576      I: conv2d_8_output                            int8(1x24x24x8) (218)      
                                                                      S: conv2d_9_scratch0                                                     
                                                                      W: conv2d_9_weights                           int8(48x1x1x8) (224)       
                                                                      W: conv2d_9_bias                              int32(48) (221)            
                                                                      O: conv2d_9_output                            int8(1x24x24x48) (222)     
------ ---------------------- ---- --------------- --------- -------- --------------------------------------------- -------------------------- 
12     conv2d_10_pad_before   10   Pad             0         0        I: conv2d_9_output                            int8(1x24x24x48) (222)     
                                                                      O: conv2d_10_pad_before_output                int8(1x26x26x48) (2)       
------ ---------------------- ---- --------------- --------- -------- --------------------------------------------- -------------------------- 
13     conv2d_10              10   Conv2D          248880    624      I: conv2d_10_pad_before_output                int8(1x26x26x48) (2)       
                                                                      S: conv2d_10_scratch0                                                    
                                                                      W: conv2d_10_weights                          int8(1x3x3x48) (4)         
                                                                      W: conv2d_10_bias                             int32(48) (0)              
                                                                      O: conv2d_10_output                           int8(1x24x24x48) (1)       
------ ---------------------- ---- --------------- --------- -------- --------------------------------------------- -------------------------- 
14     conv2d_11              11   Conv2D          221192    416      I: conv2d_10_output                           int8(1x24x24x48) (1)       
                                                                      S: conv2d_11_scratch0                                                    
                                                                      W: conv2d_11_weights                          int8(8x1x1x48) (8)         
                                                                      W: conv2d_11_bias                             int32(8) (5)               
                                                                      O: conv2d_11_output                           int8(1x24x24x8) (6)        
------ ---------------------- ---- --------------- --------- -------- --------------------------------------------- -------------------------- 
15     eltwise_12             12   Eltwise/add     4608      0        I: conv2d_8_output                            int8(1x24x24x8) (218)      
                                                                      I: conv2d_11_output                           int8(1x24x24x8) (218)      
                                                                      O: eltwise_12_output                          int8(1x24x24x8) (227)      
------ ---------------------- ---- --------------- --------- -------- --------------------------------------------- -------------------------- 
16     conv2d_13              13   Conv2D          221232    576      I: eltwise_12_output                          int8(1x24x24x8) (227)      
                                                                      S: conv2d_13_scratch0                                                    
                                                                      W: conv2d_13_weights                          int8(48x1x1x8) (12)        
                                                                      W: conv2d_13_bias                             int32(48) (9)              
                                                                      O: conv2d_13_output                           int8(1x24x24x48) (10)      
------ ---------------------- ---- --------------- --------- -------- --------------------------------------------- -------------------------- 
17     conv2d_14_pad_before   14   Pad             0         0        I: conv2d_13_output                           int8(1x24x24x48) (10)      
                                                                      O: conv2d_14_pad_before_output                int8(1x26x26x48) (15)      
------ ---------------------- ---- --------------- --------- -------- --------------------------------------------- -------------------------- 
18     conv2d_14              14   Conv2D          62256     624      I: conv2d_14_pad_before_output                int8(1x26x26x48) (15)      
                                                                      S: conv2d_14_scratch0                                                    
                                                                      W: conv2d_14_weights                          int8(1x3x3x48) (17)        
                                                                      W: conv2d_14_bias                             int32(48) (13)             
                                                                      O: conv2d_14_output                           int8(1x12x12x48) (14)      
------ ---------------------- ---- --------------- --------- -------- --------------------------------------------- -------------------------- 
19     conv2d_15              15   Conv2D          110608    832      I: conv2d_14_output                           int8(1x12x12x48) (14)      
                                                                      S: conv2d_15_scratch0                                                    
                                                                      W: conv2d_15_weights                          int8(16x1x1x48) (21)       
                                                                      W: conv2d_15_bias                             int32(16) (18)             
                                                                      O: conv2d_15_output                           int8(1x12x12x16) (19)      
------ ---------------------- ---- --------------- --------- -------- --------------------------------------------- -------------------------- 
20     conv2d_16              16   Conv2D          221280    1920     I: conv2d_15_output                           int8(1x12x12x16) (19)      
                                                                      S: conv2d_16_scratch0                                                    
                                                                      W: conv2d_16_weights                          int8(96x1x1x16) (25)       
                                                                      W: conv2d_16_bias                             int32(96) (22)             
                                                                      O: conv2d_16_output                           int8(1x12x12x96) (23)      
------ ---------------------- ---- --------------- --------- -------- --------------------------------------------- -------------------------- 
21     conv2d_17_pad_before   17   Pad             0         0        I: conv2d_16_output                           int8(1x12x12x96) (23)      
                                                                      O: conv2d_17_pad_before_output                int8(1x14x14x96) (28)      
------ ---------------------- ---- --------------- --------- -------- --------------------------------------------- -------------------------- 
22     conv2d_17              17   Conv2D          124512    1248     I: conv2d_17_pad_before_output                int8(1x14x14x96) (28)      
                                                                      S: conv2d_17_scratch0                                                    
                                                                      W: conv2d_17_weights                          int8(1x3x3x96) (30)        
                                                                      W: conv2d_17_bias                             int32(96) (26)             
                                                                      O: conv2d_17_output                           int8(1x12x12x96) (27)      
------ ---------------------- ---- --------------- --------- -------- --------------------------------------------- -------------------------- 
23     conv2d_18              18   Conv2D          221200    1600     I: conv2d_17_output                           int8(1x12x12x96) (27)      
                                                                      S: conv2d_18_scratch0                                                    
                                                                      W: conv2d_18_weights                          int8(16x1x1x96) (34)       
                                                                      W: conv2d_18_bias                             int32(16) (31)             
                                                                      O: conv2d_18_output                           int8(1x12x12x16) (32)      
------ ---------------------- ---- --------------- --------- -------- --------------------------------------------- -------------------------- 
24     eltwise_19             19   Eltwise/add     2304      0        I: conv2d_15_output                           int8(1x12x12x16) (19)      
                                                                      I: conv2d_18_output                           int8(1x12x12x16) (19)      
                                                                      O: eltwise_19_output                          int8(1x12x12x16) (228)     
------ ---------------------- ---- --------------- --------- -------- --------------------------------------------- -------------------------- 
25     conv2d_20              20   Conv2D          221280    1920     I: eltwise_19_output                          int8(1x12x12x16) (228)     
                                                                      S: conv2d_20_scratch0                                                    
                                                                      W: conv2d_20_weights                          int8(96x1x1x16) (38)       
                                                                      W: conv2d_20_bias                             int32(96) (35)             
                                                                      O: conv2d_20_output                           int8(1x12x12x96) (36)      
------ ---------------------- ---- --------------- --------- -------- --------------------------------------------- -------------------------- 
26     conv2d_21_pad_before   21   Pad             0         0        I: conv2d_20_output                           int8(1x12x12x96) (36)      
                                                                      O: conv2d_21_pad_before_output                int8(1x14x14x96) (41)      
------ ---------------------- ---- --------------- --------- -------- --------------------------------------------- -------------------------- 
27     conv2d_21              21   Conv2D          124512    1248     I: conv2d_21_pad_before_output                int8(1x14x14x96) (41)      
                                                                      S: conv2d_21_scratch0                                                    
                                                                      W: conv2d_21_weights                          int8(1x3x3x96) (43)        
                                                                      W: conv2d_21_bias                             int32(96) (39)             
                                                                      O: conv2d_21_output                           int8(1x12x12x96) (40)      
------ ---------------------- ---- --------------- --------- -------- --------------------------------------------- -------------------------- 
28     conv2d_22              22   Conv2D          221200    1600     I: conv2d_21_output                           int8(1x12x12x96) (40)      
                                                                      S: conv2d_22_scratch0                                                    
                                                                      W: conv2d_22_weights                          int8(16x1x1x96) (47)       
                                                                      W: conv2d_22_bias                             int32(16) (44)             
                                                                      O: conv2d_22_output                           int8(1x12x12x16) (45)      
------ ---------------------- ---- --------------- --------- -------- --------------------------------------------- -------------------------- 
29     eltwise_23             23   Eltwise/add     2304      0        I: eltwise_19_output                          int8(1x12x12x16) (228)     
                                                                      I: conv2d_22_output                           int8(1x12x12x16) (228)     
                                                                      O: eltwise_23_output                          int8(1x12x12x16) (230)     
------ ---------------------- ---- --------------- --------- -------- --------------------------------------------- -------------------------- 
30     conv2d_24              24   Conv2D          221280    1920     I: eltwise_23_output                          int8(1x12x12x16) (230)     
                                                                      S: conv2d_24_scratch0                                                    
                                                                      W: conv2d_24_weights                          int8(96x1x1x16) (51)       
                                                                      W: conv2d_24_bias                             int32(96) (48)             
                                                                      O: conv2d_24_output                           int8(1x12x12x96) (49)      
------ ---------------------- ---- --------------- --------- -------- --------------------------------------------- -------------------------- 
31     conv2d_25_pad_before   25   Pad             0         0        I: conv2d_24_output                           int8(1x12x12x96) (49)      
                                                                      O: conv2d_25_pad_before_output                int8(1x14x14x96) (54)      
------ ---------------------- ---- --------------- --------- -------- --------------------------------------------- -------------------------- 
32     conv2d_25              25   Conv2D          31200     1248     I: conv2d_25_pad_before_output                int8(1x14x14x96) (54)      
                                                                      S: conv2d_25_scratch0                                                    
                                                                      W: conv2d_25_weights                          int8(1x3x3x96) (56)        
                                                                      W: conv2d_25_bias                             int32(96) (52)             
                                                                      O: conv2d_25_output                           int8(1x6x6x96) (53)        
------ ---------------------- ---- --------------- --------- -------- --------------------------------------------- -------------------------- 
33     conv2d_26              26   Conv2D          82968     2400     I: conv2d_25_output                           int8(1x6x6x96) (53)        
                                                                      S: conv2d_26_scratch0                                                    
                                                                      W: conv2d_26_weights                          int8(24x1x1x96) (60)       
                                                                      W: conv2d_26_bias                             int32(24) (57)             
                                                                      O: conv2d_26_output                           int8(1x6x6x24) (58)        
------ ---------------------- ---- --------------- --------- -------- --------------------------------------------- -------------------------- 
34     conv2d_27              27   Conv2D          124560    4032     I: conv2d_26_output                           int8(1x6x6x24) (58)        
                                                                      S: conv2d_27_scratch0                                                    
                                                                      W: conv2d_27_weights                          int8(144x1x1x24) (64)      
                                                                      W: conv2d_27_bias                             int32(144) (61)            
                                                                      O: conv2d_27_output                           int8(1x6x6x144) (62)       
------ ---------------------- ---- --------------- --------- -------- --------------------------------------------- -------------------------- 
35     conv2d_28_pad_before   28   Pad             0         0        I: conv2d_27_output                           int8(1x6x6x144) (62)       
                                                                      O: conv2d_28_pad_before_output                int8(1x8x8x144) (67)       
------ ---------------------- ---- --------------- --------- -------- --------------------------------------------- -------------------------- 
36     conv2d_28              28   Conv2D          46800     1872     I: conv2d_28_pad_before_output                int8(1x8x8x144) (67)       
                                                                      S: conv2d_28_scratch0                                                    
                                                                      W: conv2d_28_weights                          int8(1x3x3x144) (69)       
                                                                      W: conv2d_28_bias                             int32(144) (65)            
                                                                      O: conv2d_28_output                           int8(1x6x6x144) (66)       
------ ---------------------- ---- --------------- --------- -------- --------------------------------------------- -------------------------- 
37     conv2d_29              29   Conv2D          124440    3552     I: conv2d_28_output                           int8(1x6x6x144) (66)       
                                                                      S: conv2d_29_scratch0                                                    
                                                                      W: conv2d_29_weights                          int8(24x1x1x144) (73)      
                                                                      W: conv2d_29_bias                             int32(24) (70)             
                                                                      O: conv2d_29_output                           int8(1x6x6x24) (71)        
------ ---------------------- ---- --------------- --------- -------- --------------------------------------------- -------------------------- 
38     eltwise_30             30   Eltwise/add     864       0        I: conv2d_26_output                           int8(1x6x6x24) (58)        
                                                                      I: conv2d_29_output                           int8(1x6x6x24) (58)        
                                                                      O: eltwise_30_output                          int8(1x6x6x24) (232)       
------ ---------------------- ---- --------------- --------- -------- --------------------------------------------- -------------------------- 
39     conv2d_31              31   Conv2D          124560    4032     I: eltwise_30_output                          int8(1x6x6x24) (232)       
                                                                      S: conv2d_31_scratch0                                                    
                                                                      W: conv2d_31_weights                          int8(144x1x1x24) (77)      
                                                                      W: conv2d_31_bias                             int32(144) (74)            
                                                                      O: conv2d_31_output                           int8(1x6x6x144) (75)       
------ ---------------------- ---- --------------- --------- -------- --------------------------------------------- -------------------------- 
40     conv2d_32_pad_before   32   Pad             0         0        I: conv2d_31_output                           int8(1x6x6x144) (75)       
                                                                      O: conv2d_32_pad_before_output                int8(1x8x8x144) (80)       
------ ---------------------- ---- --------------- --------- -------- --------------------------------------------- -------------------------- 
41     conv2d_32              32   Conv2D          46800     1872     I: conv2d_32_pad_before_output                int8(1x8x8x144) (80)       
                                                                      S: conv2d_32_scratch0                                                    
                                                                      W: conv2d_32_weights                          int8(1x3x3x144) (82)       
                                                                      W: conv2d_32_bias                             int32(144) (78)            
                                                                      O: conv2d_32_output                           int8(1x6x6x144) (79)       
------ ---------------------- ---- --------------- --------- -------- --------------------------------------------- -------------------------- 
42     conv2d_33              33   Conv2D          124440    3552     I: conv2d_32_output                           int8(1x6x6x144) (79)       
                                                                      S: conv2d_33_scratch0                                                    
                                                                      W: conv2d_33_weights                          int8(24x1x1x144) (86)      
                                                                      W: conv2d_33_bias                             int32(24) (83)             
                                                                      O: conv2d_33_output                           int8(1x6x6x24) (84)        
------ ---------------------- ---- --------------- --------- -------- --------------------------------------------- -------------------------- 
43     eltwise_34             34   Eltwise/add     864       0        I: eltwise_30_output                          int8(1x6x6x24) (232)       
                                                                      I: conv2d_33_output                           int8(1x6x6x24) (232)       
                                                                      O: eltwise_34_output                          int8(1x6x6x24) (233)       
------ ---------------------- ---- --------------- --------- -------- --------------------------------------------- -------------------------- 
44     conv2d_35              35   Conv2D          124560    4032     I: eltwise_34_output                          int8(1x6x6x24) (233)       
                                                                      S: conv2d_35_scratch0                                                    
                                                                      W: conv2d_35_weights                          int8(144x1x1x24) (90)      
                                                                      W: conv2d_35_bias                             int32(144) (87)            
                                                                      O: conv2d_35_output                           int8(1x6x6x144) (88)       
------ ---------------------- ---- --------------- --------- -------- --------------------------------------------- -------------------------- 
45     conv2d_36_pad_before   36   Pad             0         0        I: conv2d_35_output                           int8(1x6x6x144) (88)       
                                                                      O: conv2d_36_pad_before_output                int8(1x8x8x144) (93)       
------ ---------------------- ---- --------------- --------- -------- --------------------------------------------- -------------------------- 
46     conv2d_36              36   Conv2D          46800     1872     I: conv2d_36_pad_before_output                int8(1x8x8x144) (93)       
                                                                      S: conv2d_36_scratch0                                                    
                                                                      W: conv2d_36_weights                          int8(1x3x3x144) (95)       
                                                                      W: conv2d_36_bias                             int32(144) (91)            
                                                                      O: conv2d_36_output                           int8(1x6x6x144) (92)       
------ ---------------------- ---- --------------- --------- -------- --------------------------------------------- -------------------------- 
47     conv2d_37              37   Conv2D          124440    3552     I: conv2d_36_output                           int8(1x6x6x144) (92)       
                                                                      S: conv2d_37_scratch0                                                    
                                                                      W: conv2d_37_weights                          int8(24x1x1x144) (99)      
                                                                      W: conv2d_37_bias                             int32(24) (96)             
                                                                      O: conv2d_37_output                           int8(1x6x6x24) (97)        
------ ---------------------- ---- --------------- --------- -------- --------------------------------------------- -------------------------- 
48     eltwise_38             38   Eltwise/add     864       0        I: eltwise_34_output                          int8(1x6x6x24) (233)       
                                                                      I: conv2d_37_output                           int8(1x6x6x24) (233)       
                                                                      O: eltwise_38_output                          int8(1x6x6x24) (234)       
------ ---------------------- ---- --------------- --------- -------- --------------------------------------------- -------------------------- 
49     conv2d_39              39   Conv2D          124560    4032     I: eltwise_38_output                          int8(1x6x6x24) (234)       
                                                                      S: conv2d_39_scratch0                                                    
                                                                      W: conv2d_39_weights                          int8(144x1x1x24) (103)     
                                                                      W: conv2d_39_bias                             int32(144) (100)           
                                                                      O: conv2d_39_output                           int8(1x6x6x144) (101)      
------ ---------------------- ---- --------------- --------- -------- --------------------------------------------- -------------------------- 
50     conv2d_40_pad_before   40   Pad             0         0        I: conv2d_39_output                           int8(1x6x6x144) (101)      
                                                                      O: conv2d_40_pad_before_output                int8(1x8x8x144) (110)      
------ ---------------------- ---- --------------- --------- -------- --------------------------------------------- -------------------------- 
51     conv2d_40              40   Conv2D          46800     1872     I: conv2d_40_pad_before_output                int8(1x8x8x144) (110)      
                                                                      S: conv2d_40_scratch0                                                    
                                                                      W: conv2d_40_weights                          int8(1x3x3x144) (112)      
                                                                      W: conv2d_40_bias                             int32(144) (108)           
                                                                      O: conv2d_40_output                           int8(1x6x6x144) (109)      
------ ---------------------- ---- --------------- --------- -------- --------------------------------------------- -------------------------- 
52     conv2d_41              41   Conv2D          165920    4736     I: conv2d_40_output                           int8(1x6x6x144) (109)      
                                                                      S: conv2d_41_scratch0                                                    
                                                                      W: conv2d_41_weights                          int8(32x1x1x144) (116)     
                                                                      W: conv2d_41_bias                             int32(32) (113)            
                                                                      O: conv2d_41_output                           int8(1x6x6x32) (114)       
------ ---------------------- ---- --------------- --------- -------- --------------------------------------------- -------------------------- 
53     conv2d_42              42   Conv2D          221376    6912     I: conv2d_41_output                           int8(1x6x6x32) (114)       
                                                                      S: conv2d_42_scratch0                                                    
                                                                      W: conv2d_42_weights                          int8(192x1x1x32) (120)     
                                                                      W: conv2d_42_bias                             int32(192) (117)           
                                                                      O: conv2d_42_output                           int8(1x6x6x192) (118)      
------ ---------------------- ---- --------------- --------- -------- --------------------------------------------- -------------------------- 
54     conv2d_43_pad_before   43   Pad             0         0        I: conv2d_42_output                           int8(1x6x6x192) (118)      
                                                                      O: conv2d_43_pad_before_output                int8(1x8x8x192) (123)      
------ ---------------------- ---- --------------- --------- -------- --------------------------------------------- -------------------------- 
55     conv2d_43              43   Conv2D          62400     2496     I: conv2d_43_pad_before_output                int8(1x8x8x192) (123)      
                                                                      S: conv2d_43_scratch0                                                    
                                                                      W: conv2d_43_weights                          int8(1x3x3x192) (125)      
                                                                      W: conv2d_43_bias                             int32(192) (121)           
                                                                      O: conv2d_43_output                           int8(1x6x6x192) (122)      
------ ---------------------- ---- --------------- --------- -------- --------------------------------------------- -------------------------- 
56     conv2d_44              44   Conv2D          221216    6272     I: conv2d_43_output                           int8(1x6x6x192) (122)      
                                                                      S: conv2d_44_scratch0                                                    
                                                                      W: conv2d_44_weights                          int8(32x1x1x192) (129)     
                                                                      W: conv2d_44_bias                             int32(32) (126)            
                                                                      O: conv2d_44_output                           int8(1x6x6x32) (127)       
------ ---------------------- ---- --------------- --------- -------- --------------------------------------------- -------------------------- 
57     eltwise_45             45   Eltwise/add     1152      0        I: conv2d_41_output                           int8(1x6x6x32) (114)       
                                                                      I: conv2d_44_output                           int8(1x6x6x32) (114)       
                                                                      O: eltwise_45_output                          int8(1x6x6x32) (235)       
------ ---------------------- ---- --------------- --------- -------- --------------------------------------------- -------------------------- 
58     conv2d_46              46   Conv2D          221376    6912     I: eltwise_45_output                          int8(1x6x6x32) (235)       
                                                                      S: conv2d_46_scratch0                                                    
                                                                      W: conv2d_46_weights                          int8(192x1x1x32) (133)     
                                                                      W: conv2d_46_bias                             int32(192) (130)           
                                                                      O: conv2d_46_output                           int8(1x6x6x192) (131)      
------ ---------------------- ---- --------------- --------- -------- --------------------------------------------- -------------------------- 
59     conv2d_47_pad_before   47   Pad             0         0        I: conv2d_46_output                           int8(1x6x6x192) (131)      
                                                                      O: conv2d_47_pad_before_output                int8(1x8x8x192) (136)      
------ ---------------------- ---- --------------- --------- -------- --------------------------------------------- -------------------------- 
60     conv2d_47              47   Conv2D          62400     2496     I: conv2d_47_pad_before_output                int8(1x8x8x192) (136)      
                                                                      S: conv2d_47_scratch0                                                    
                                                                      W: conv2d_47_weights                          int8(1x3x3x192) (138)      
                                                                      W: conv2d_47_bias                             int32(192) (134)           
                                                                      O: conv2d_47_output                           int8(1x6x6x192) (135)      
------ ---------------------- ---- --------------- --------- -------- --------------------------------------------- -------------------------- 
61     conv2d_48              48   Conv2D          221216    6272     I: conv2d_47_output                           int8(1x6x6x192) (135)      
                                                                      S: conv2d_48_scratch0                                                    
                                                                      W: conv2d_48_weights                          int8(32x1x1x192) (142)     
                                                                      W: conv2d_48_bias                             int32(32) (139)            
                                                                      O: conv2d_48_output                           int8(1x6x6x32) (140)       
------ ---------------------- ---- --------------- --------- -------- --------------------------------------------- -------------------------- 
62     eltwise_49             49   Eltwise/add     1152      0        I: eltwise_45_output                          int8(1x6x6x32) (235)       
                                                                      I: conv2d_48_output                           int8(1x6x6x32) (235)       
                                                                      O: eltwise_49_output                          int8(1x6x6x32) (236)       
------ ---------------------- ---- --------------- --------- -------- --------------------------------------------- -------------------------- 
63     conv2d_50              50   Conv2D          221376    6912     I: eltwise_49_output                          int8(1x6x6x32) (236)       
                                                                      S: conv2d_50_scratch0                                                    
                                                                      W: conv2d_50_weights                          int8(192x1x1x32) (151)     
                                                                      W: conv2d_50_bias                             int32(192) (148)           
                                                                      O: conv2d_50_output                           int8(1x6x6x192) (149)      
------ ---------------------- ---- --------------- --------- -------- --------------------------------------------- -------------------------- 
64     conv2d_51_pad_before   51   Pad             0         0        I: conv2d_50_output                           int8(1x6x6x192) (149)      
                                                                      O: conv2d_51_pad_before_output                int8(1x8x8x192) (154)      
------ ---------------------- ---- --------------- --------- -------- --------------------------------------------- -------------------------- 
65     conv2d_51              51   Conv2D          15744     2496     I: conv2d_51_pad_before_output                int8(1x8x8x192) (154)      
                                                                      S: conv2d_51_scratch0                                                    
                                                                      W: conv2d_51_weights                          int8(1x3x3x192) (156)      
                                                                      W: conv2d_51_bias                             int32(192) (152)           
                                                                      O: conv2d_51_output                           int8(1x3x3x192) (153)      
------ ---------------------- ---- --------------- --------- -------- --------------------------------------------- -------------------------- 
66     conv2d_52              52   Conv2D          96824     10976    I: conv2d_51_output                           int8(1x3x3x192) (153)      
                                                                      S: conv2d_52_scratch0                                                    
                                                                      W: conv2d_52_weights                          int8(56x1x1x192) (160)     
                                                                      W: conv2d_52_bias                             int32(56) (157)            
                                                                      O: conv2d_52_output                           int8(1x3x3x56) (158)       
------ ---------------------- ---- --------------- --------- -------- --------------------------------------------- -------------------------- 
67     conv2d_53              53   Conv2D          169680    20160    I: conv2d_52_output                           int8(1x3x3x56) (158)       
                                                                      S: conv2d_53_scratch0                                                    
                                                                      W: conv2d_53_weights                          int8(336x1x1x56) (164)     
                                                                      W: conv2d_53_bias                             int32(336) (161)           
                                                                      O: conv2d_53_output                           int8(1x3x3x336) (162)      
------ ---------------------- ---- --------------- --------- -------- --------------------------------------------- -------------------------- 
68     conv2d_54_pad_before   54   Pad             0         0        I: conv2d_53_output                           int8(1x3x3x336) (162)      
                                                                      O: conv2d_54_pad_before_output                int8(1x5x5x336) (167)      
------ ---------------------- ---- --------------- --------- -------- --------------------------------------------- -------------------------- 
69     conv2d_54              54   Conv2D          27552     4368     I: conv2d_54_pad_before_output                int8(1x5x5x336) (167)      
                                                                      S: conv2d_54_scratch0                                                    
                                                                      W: conv2d_54_weights                          int8(1x3x3x336) (169)      
                                                                      W: conv2d_54_bias                             int32(336) (165)           
                                                                      O: conv2d_54_output                           int8(1x3x3x336) (166)      
------ ---------------------- ---- --------------- --------- -------- --------------------------------------------- -------------------------- 
70     conv2d_55              55   Conv2D          169400    19040    I: conv2d_54_output                           int8(1x3x3x336) (166)      
                                                                      S: conv2d_55_scratch0                                                    
                                                                      W: conv2d_55_weights                          int8(56x1x1x336) (173)     
                                                                      W: conv2d_55_bias                             int32(56) (170)            
                                                                      O: conv2d_55_output                           int8(1x3x3x56) (171)       
------ ---------------------- ---- --------------- --------- -------- --------------------------------------------- -------------------------- 
71     eltwise_56             56   Eltwise/add     504       0        I: conv2d_52_output                           int8(1x3x3x56) (158)       
                                                                      I: conv2d_55_output                           int8(1x3x3x56) (158)       
                                                                      O: eltwise_56_output                          int8(1x3x3x56) (237)       
------ ---------------------- ---- --------------- --------- -------- --------------------------------------------- -------------------------- 
72     conv2d_57              57   Conv2D          169680    20160    I: eltwise_56_output                          int8(1x3x3x56) (237)       
                                                                      S: conv2d_57_scratch0                                                    
                                                                      W: conv2d_57_weights                          int8(336x1x1x56) (177)     
                                                                      W: conv2d_57_bias                             int32(336) (174)           
                                                                      O: conv2d_57_output                           int8(1x3x3x336) (175)      
------ ---------------------- ---- --------------- --------- -------- --------------------------------------------- -------------------------- 
73     conv2d_58_pad_before   58   Pad             0         0        I: conv2d_57_output                           int8(1x3x3x336) (175)      
                                                                      O: conv2d_58_pad_before_output                int8(1x5x5x336) (180)      
------ ---------------------- ---- --------------- --------- -------- --------------------------------------------- -------------------------- 
74     conv2d_58              58   Conv2D          27552     4368     I: conv2d_58_pad_before_output                int8(1x5x5x336) (180)      
                                                                      S: conv2d_58_scratch0                                                    
                                                                      W: conv2d_58_weights                          int8(1x3x3x336) (182)      
                                                                      W: conv2d_58_bias                             int32(336) (178)           
                                                                      O: conv2d_58_output                           int8(1x3x3x336) (179)      
------ ---------------------- ---- --------------- --------- -------- --------------------------------------------- -------------------------- 
75     conv2d_59              59   Conv2D          169400    19040    I: conv2d_58_output                           int8(1x3x3x336) (179)      
                                                                      S: conv2d_59_scratch0                                                    
                                                                      W: conv2d_59_weights                          int8(56x1x1x336) (186)     
                                                                      W: conv2d_59_bias                             int32(56) (183)            
                                                                      O: conv2d_59_output                           int8(1x3x3x56) (184)       
------ ---------------------- ---- --------------- --------- -------- --------------------------------------------- -------------------------- 
76     eltwise_60             60   Eltwise/add     504       0        I: eltwise_56_output                          int8(1x3x3x56) (237)       
                                                                      I: conv2d_59_output                           int8(1x3x3x56) (237)       
                                                                      O: eltwise_60_output                          int8(1x3x3x56) (238)       
------ ---------------------- ---- --------------- --------- -------- --------------------------------------------- -------------------------- 
77     conv2d_61              61   Conv2D          169680    20160    I: eltwise_60_output                          int8(1x3x3x56) (238)       
                                                                      S: conv2d_61_scratch0                                                    
                                                                      W: conv2d_61_weights                          int8(336x1x1x56) (194)     
                                                                      W: conv2d_61_bias                             int32(336) (191)           
                                                                      O: conv2d_61_output                           int8(1x3x3x336) (192)      
------ ---------------------- ---- --------------- --------- -------- --------------------------------------------- -------------------------- 
78     conv2d_62_pad_before   62   Pad             0         0        I: conv2d_61_output                           int8(1x3x3x336) (192)      
                                                                      O: conv2d_62_pad_before_output                int8(1x5x5x336) (197)      
------ ---------------------- ---- --------------- --------- -------- --------------------------------------------- -------------------------- 
79     conv2d_62              62   Conv2D          27552     4368     I: conv2d_62_pad_before_output                int8(1x5x5x336) (197)      
                                                                      S: conv2d_62_scratch0                                                    
                                                                      W: conv2d_62_weights                          int8(1x3x3x336) (199)      
                                                                      W: conv2d_62_bias                             int32(336) (195)           
                                                                      O: conv2d_62_output                           int8(1x3x3x336) (196)      
------ ---------------------- ---- --------------- --------- -------- --------------------------------------------- -------------------------- 
80     conv2d_63              63   Conv2D          338800    38080    I: conv2d_62_output                           int8(1x3x3x336) (196)      
                                                                      S: conv2d_63_scratch0                                                    
                                                                      W: conv2d_63_weights                          int8(112x1x1x336) (203)    
                                                                      W: conv2d_63_bias                             int32(112) (200)           
                                                                      O: conv2d_63_output                           int8(1x3x3x112) (201)      
------ ---------------------- ---- --------------- --------- -------- --------------------------------------------- -------------------------- 
81     conv2d_64              64   Conv2D          1291520   148480   I: conv2d_63_output                           int8(1x3x3x112) (201)      
                                                                      S: conv2d_64_scratch0                                                    
                                                                      W: conv2d_64_weights                          int8(1280x1x1x112) (207)   
                                                                      W: conv2d_64_bias                             int32(1280) (204)          
                                                                      O: conv2d_64_output                           int8(1x3x3x1280) (205)     
------ ---------------------- ---- --------------- --------- -------- --------------------------------------------- -------------------------- 
82     pool_65                65   Pool            11520     0        I: conv2d_64_output                           int8(1x3x3x1280) (205)     
                                                                      O: pool_65_output                             int8(1x1x1x1280) (249)     
------ ---------------------- ---- --------------- --------- -------- --------------------------------------------- -------------------------- 
83     gemm_66                66   Dense           81984     82176    I: pool_65_output                             int8(1x1x1x1280) (249)     
                                                                      S: gemm_66_scratch0                                                      
                                                                      W: gemm_66_weights                            int8(64x1280) (242)        
                                                                      W: gemm_66_bias                               int32(64) (239)            
                                                                      O: gemm_66_output                             int8(1x64) (240)           
------ ---------------------- ---- --------------- --------- -------- --------------------------------------------- -------------------------- 
84     gemm_67                67   Dense           325       340      I: gemm_66_output                             int8(1x64) (240)           
                                                                      S: gemm_67_scratch0                                                      
                                                                      W: gemm_67_weights                            int8(5x64) (246)           
                                                                      W: gemm_67_bias                               int32(5) (243)             
                                                                      O: gemm_67_output                             int8(1x5) (244)            
------ ---------------------- ---- --------------- --------- -------- --------------------------------------------- -------------------------- 
85     nl_68                  68   Nonlinearity    75        0        I: gemm_67_output                             int8(1x5) (244)            
                                                                      S: nl_68_scratch0                                                        
                                                                      O: nl_68_output                               int8(1x5) (247)            
------ ---------------------- ---- --------------- --------- -------- --------------------------------------------- -------------------------- 
86     conversion_69          69   Conversion      10        0        I: nl_68_output                               int8(1x5) (247)            
                                                                      O: conversion_69_output                       uint8(1x5) (226)           
------ ---------------------- ---- --------------- --------- -------- --------------------------------------------- -------------------------- 



Number of operations per c-layer
------- ------ ---------------------------- ------------ ------------ 
c_id    m_id   name (type)                           #op         type 
------- ------ ---------------------------- ------------ ------------ 
0       0      conversion_0 (Conversion)          55,296   smul_u8_s8 
1       1      eltwise_1 (Eltwise/mul)            27,648     op_s8_s8 
2       2      eltwise_2 (Eltwise/sub)            27,648     op_s8_s8 
3       3      conv2d_3 (Conv2D)                 995,344   smul_s8_s8 
4       4      conv2d_4_pad_before (Pad)               0   smul_s8_s8 
5       4      conv2d_4 (Conv2D)                 331,792   smul_s8_s8 
6       5      conv2d_5 (Conv2D)                 294,920   smul_s8_s8 
7       6      conv2d_6 (Conv2D)                 884,784   smul_s8_s8 
8       7      conv2d_7_pad_before (Pad)               0   smul_s8_s8 
9       7      conv2d_7 (Conv2D)                 248,880   smul_s8_s8 
10      8      conv2d_8 (Conv2D)                 221,192   smul_s8_s8 
11      9      conv2d_9 (Conv2D)                 221,232   smul_s8_s8 
12      10     conv2d_10_pad_before (Pad)              0   smul_s8_s8 
13      10     conv2d_10 (Conv2D)                248,880   smul_s8_s8 
14      11     conv2d_11 (Conv2D)                221,192   smul_s8_s8 
15      12     eltwise_12 (Eltwise/add)            4,608     op_s8_s8 
16      13     conv2d_13 (Conv2D)                221,232   smul_s8_s8 
17      14     conv2d_14_pad_before (Pad)              0   smul_s8_s8 
18      14     conv2d_14 (Conv2D)                 62,256   smul_s8_s8 
19      15     conv2d_15 (Conv2D)                110,608   smul_s8_s8 
20      16     conv2d_16 (Conv2D)                221,280   smul_s8_s8 
21      17     conv2d_17_pad_before (Pad)              0   smul_s8_s8 
22      17     conv2d_17 (Conv2D)                124,512   smul_s8_s8 
23      18     conv2d_18 (Conv2D)                221,200   smul_s8_s8 
24      19     eltwise_19 (Eltwise/add)            2,304     op_s8_s8 
25      20     conv2d_20 (Conv2D)                221,280   smul_s8_s8 
26      21     conv2d_21_pad_before (Pad)              0   smul_s8_s8 
27      21     conv2d_21 (Conv2D)                124,512   smul_s8_s8 
28      22     conv2d_22 (Conv2D)                221,200   smul_s8_s8 
29      23     eltwise_23 (Eltwise/add)            2,304     op_s8_s8 
30      24     conv2d_24 (Conv2D)                221,280   smul_s8_s8 
31      25     conv2d_25_pad_before (Pad)              0   smul_s8_s8 
32      25     conv2d_25 (Conv2D)                 31,200   smul_s8_s8 
33      26     conv2d_26 (Conv2D)                 82,968   smul_s8_s8 
34      27     conv2d_27 (Conv2D)                124,560   smul_s8_s8 
35      28     conv2d_28_pad_before (Pad)              0   smul_s8_s8 
36      28     conv2d_28 (Conv2D)                 46,800   smul_s8_s8 
37      29     conv2d_29 (Conv2D)                124,440   smul_s8_s8 
38      30     eltwise_30 (Eltwise/add)              864     op_s8_s8 
39      31     conv2d_31 (Conv2D)                124,560   smul_s8_s8 
40      32     conv2d_32_pad_before (Pad)              0   smul_s8_s8 
41      32     conv2d_32 (Conv2D)                 46,800   smul_s8_s8 
42      33     conv2d_33 (Conv2D)                124,440   smul_s8_s8 
43      34     eltwise_34 (Eltwise/add)              864     op_s8_s8 
44      35     conv2d_35 (Conv2D)                124,560   smul_s8_s8 
45      36     conv2d_36_pad_before (Pad)              0   smul_s8_s8 
46      36     conv2d_36 (Conv2D)                 46,800   smul_s8_s8 
47      37     conv2d_37 (Conv2D)                124,440   smul_s8_s8 
48      38     eltwise_38 (Eltwise/add)              864     op_s8_s8 
49      39     conv2d_39 (Conv2D)                124,560   smul_s8_s8 
50      40     conv2d_40_pad_before (Pad)              0   smul_s8_s8 
51      40     conv2d_40 (Conv2D)                 46,800   smul_s8_s8 
52      41     conv2d_41 (Conv2D)                165,920   smul_s8_s8 
53      42     conv2d_42 (Conv2D)                221,376   smul_s8_s8 
54      43     conv2d_43_pad_before (Pad)              0   smul_s8_s8 
55      43     conv2d_43 (Conv2D)                 62,400   smul_s8_s8 
56      44     conv2d_44 (Conv2D)                221,216   smul_s8_s8 
57      45     eltwise_45 (Eltwise/add)            1,152     op_s8_s8 
58      46     conv2d_46 (Conv2D)                221,376   smul_s8_s8 
59      47     conv2d_47_pad_before (Pad)              0   smul_s8_s8 
60      47     conv2d_47 (Conv2D)                 62,400   smul_s8_s8 
61      48     conv2d_48 (Conv2D)                221,216   smul_s8_s8 
62      49     eltwise_49 (Eltwise/add)            1,152     op_s8_s8 
63      50     conv2d_50 (Conv2D)                221,376   smul_s8_s8 
64      51     conv2d_51_pad_before (Pad)              0   smul_s8_s8 
65      51     conv2d_51 (Conv2D)                 15,744   smul_s8_s8 
66      52     conv2d_52 (Conv2D)                 96,824   smul_s8_s8 
67      53     conv2d_53 (Conv2D)                169,680   smul_s8_s8 
68      54     conv2d_54_pad_before (Pad)              0   smul_s8_s8 
69      54     conv2d_54 (Conv2D)                 27,552   smul_s8_s8 
70      55     conv2d_55 (Conv2D)                169,400   smul_s8_s8 
71      56     eltwise_56 (Eltwise/add)              504     op_s8_s8 
72      57     conv2d_57 (Conv2D)                169,680   smul_s8_s8 
73      58     conv2d_58_pad_before (Pad)              0   smul_s8_s8 
74      58     conv2d_58 (Conv2D)                 27,552   smul_s8_s8 
75      59     conv2d_59 (Conv2D)                169,400   smul_s8_s8 
76      60     eltwise_60 (Eltwise/add)              504     op_s8_s8 
77      61     conv2d_61 (Conv2D)                169,680   smul_s8_s8 
78      62     conv2d_62_pad_before (Pad)              0   smul_s8_s8 
79      62     conv2d_62 (Conv2D)                 27,552   smul_s8_s8 
80      63     conv2d_63 (Conv2D)                338,800   smul_s8_s8 
81      64     conv2d_64 (Conv2D)              1,291,520   smul_s8_s8 
82      65     pool_65 (Pool)                     11,520   smul_s8_s8 
83      66     gemm_66 (Dense)                    81,984   smul_s8_s8 
84      67     gemm_67 (Dense)                       325   smul_s8_s8 
85      68     nl_68 (Nonlinearity)                   75     op_s8_s8 
86      69     conversion_69 (Conversion)             10   smul_s8_u8 
------- ------ ---------------------------- ------------ ------------ 
total                                         10,880,794 

Number of operation types
---------------- ------------ ----------- 
operation type              #           % 
---------------- ------------ ----------- 
smul_u8_s8             55,296        0.5% 
op_s8_s8               70,491        0.6% 
smul_s8_s8         10,754,997       98.8% 
smul_s8_u8                 10        0.0% 

Complexity report (model)
------ ----------------------------------- ------------------------- ------------------------- ---------- 
m_id   name                                c_macc                    c_rom                     c_id       
------ ----------------------------------- ------------------------- ------------------------- ---------- 
0      serving_default_keras_tensor_1540   |                  0.5%   |                  0.0%   [0]        
1      tfl_pseudo_qconst109                |                  0.3%   |                  0.0%   [1]        
2      tfl_pseudo_qconst108                |                  0.3%   |                  0.0%   [2]        
3      conv2d_3                            ||||||||||||       9.1%   |                  0.1%   [3]        
4      conv2d_4                            ||||               3.0%   |                  0.0%   [4, 5]     
5      conv2d_5                            ||||               2.7%   |                  0.0%   [6]        
6      conv2d_6                            |||||||||||        8.1%   |                  0.1%   [7]        
7      conv2d_7                            |||                2.3%   |                  0.1%   [8, 9]     
8      conv2d_8                            |||                2.0%   |                  0.1%   [10]       
9      conv2d_9                            |||                2.0%   |                  0.1%   [11]       
10     conv2d_10                           |||                2.3%   |                  0.1%   [12, 13]   
11     conv2d_11                           |||                2.0%   |                  0.1%   [14]       
12     eltwise_12                          |                  0.0%   |                  0.0%   [15]       
13     conv2d_13                           |||                2.0%   |                  0.1%   [16]       
14     conv2d_14                           |                  0.6%   |                  0.1%   [17, 18]   
15     conv2d_15                           ||                 1.0%   |                  0.2%   [19]       
16     conv2d_16                           |||                2.0%   |                  0.4%   [20]       
17     conv2d_17                           ||                 1.1%   |                  0.3%   [21, 22]   
18     conv2d_18                           |||                2.0%   |                  0.3%   [23]       
19     eltwise_19                          |                  0.0%   |                  0.0%   [24]       
20     conv2d_20                           |||                2.0%   |                  0.4%   [25]       
21     conv2d_21                           ||                 1.1%   |                  0.3%   [26, 27]   
22     conv2d_22                           |||                2.0%   |                  0.3%   [28]       
23     eltwise_23                          |                  0.0%   |                  0.0%   [29]       
24     conv2d_24                           |||                2.0%   |                  0.4%   [30]       
25     conv2d_25                           |                  0.3%   |                  0.3%   [31, 32]   
26     conv2d_26                           |                  0.8%   |                  0.5%   [33]       
27     conv2d_27                           ||                 1.1%   |                  0.8%   [34]       
28     conv2d_28                           |                  0.4%   |                  0.4%   [35, 36]   
29     conv2d_29                           ||                 1.1%   |                  0.7%   [37]       
30     eltwise_30                          |                  0.0%   |                  0.0%   [38]       
31     conv2d_31                           ||                 1.1%   |                  0.8%   [39]       
32     conv2d_32                           |                  0.4%   |                  0.4%   [40, 41]   
33     conv2d_33                           ||                 1.1%   |                  0.7%   [42]       
34     eltwise_34                          |                  0.0%   |                  0.0%   [43]       
35     conv2d_35                           ||                 1.1%   |                  0.8%   [44]       
36     conv2d_36                           |                  0.4%   |                  0.4%   [45, 46]   
37     conv2d_37                           ||                 1.1%   |                  0.7%   [47]       
38     eltwise_38                          |                  0.0%   |                  0.0%   [48]       
39     conv2d_39                           ||                 1.1%   |                  0.8%   [49]       
40     conv2d_40                           |                  0.4%   |                  0.4%   [50, 51]   
41     conv2d_41                           ||                 1.5%   |                  1.0%   [52]       
42     conv2d_42                           |||                2.0%   |                  1.4%   [53]       
43     conv2d_43                           |                  0.6%   |                  0.5%   [54, 55]   
44     conv2d_44                           |||                2.0%   |                  1.3%   [56]       
45     eltwise_45                          |                  0.0%   |                  0.0%   [57]       
46     conv2d_46                           |||                2.0%   |                  1.4%   [58]       
47     conv2d_47                           |                  0.6%   |                  0.5%   [59, 60]   
48     conv2d_48                           |||                2.0%   |                  1.3%   [61]       
49     eltwise_49                          |                  0.0%   |                  0.0%   [62]       
50     conv2d_50                           |||                2.0%   |                  1.4%   [63]       
51     conv2d_51                           |                  0.1%   |                  0.5%   [64, 65]   
52     conv2d_52                           ||                 0.9%   ||                 2.2%   [66]       
53     conv2d_53                           ||                 1.6%   |||                4.1%   [67]       
54     conv2d_54                           |                  0.3%   |                  0.9%   [68, 69]   
55     conv2d_55                           ||                 1.6%   ||                 3.9%   [70]       
56     eltwise_56                          |                  0.0%   |                  0.0%   [71]       
57     conv2d_57                           ||                 1.6%   |||                4.1%   [72]       
58     conv2d_58                           |                  0.3%   |                  0.9%   [73, 74]   
59     conv2d_59                           ||                 1.6%   ||                 3.9%   [75]       
60     eltwise_60                          |                  0.0%   |                  0.0%   [76]       
61     conv2d_61                           ||                 1.6%   |||                4.1%   [77]       
62     conv2d_62                           |                  0.3%   |                  0.9%   [78, 79]   
63     conv2d_63                           ||||               3.1%   ||||               7.7%   [80]       
64     conv2d_64                           ||||||||||||||||  11.9%   ||||||||||||||||  30.1%   [81]       
65     pool_65                             |                  0.1%   |                  0.0%   [82]       
66     tfl_pseudo_qconst3                  |                  0.8%   |||||||||         16.7%   [83]       
67     tfl_pseudo_qconst1                  |                  0.0%   |                  0.1%   [84]       
68     nl_68                               |                  0.0%   |                  0.0%   [85]       
69     conversion_69                       |                  0.0%   |                  0.0%   [86]       
------ ----------------------------------- ------------------------- ------------------------- ---------- 
macc=10,880,794 weights=492,732 act=129,536 ram_io=0
 
 Requested memory size by section - "stm32h7" target
 ------------------------------ -------- --------- -------- --------- 
 module                             text    rodata     data       bss 
 ------------------------------ -------- --------- -------- --------- 
 network.o                         4,868    39,312   30,444     1,204 
 NetworkRuntime1020_CM7_GCC.a     32,892         0        0         0 
 network_data.o                       48        16       88         0 
 lib (toolchain)*                    104         0        0         0 
 ------------------------------ -------- --------- -------- --------- 
 RT total**                       37,912    39,328   30,532     1,204 
 ------------------------------ -------- --------- -------- --------- 
 weights                               0   492,736        0         0 
 activations                           0         0        0   129,536 
 io                                    0         0        0         0 
 ------------------------------ -------- --------- -------- --------- 
 TOTAL                            37,912   532,064   30,532   130,740 
 ------------------------------ -------- --------- -------- --------- 
 *  toolchain objects (libm/libgcc*)
 ** RT AI runtime objects (kernels+infrastructure)
  
  Summary - "stm32h7" target
  ---------------------------------------------------
               FLASH (ro)      %*   RAM (rw)       % 
  ---------------------------------------------------
  RT total        107,772   17.9%     31,736   19.7% 
  ---------------------------------------------------
  TOTAL           600,508            161,272         
  ---------------------------------------------------
  *  rt/total


Generated files (7)
-------------------------------------------------------------------------- 
/home/vitordasilvadias/.stm32cubemx/network_output/network_data_params.h   
/home/vitordasilvadias/.stm32cubemx/network_output/network_data_params.c   
/home/vitordasilvadias/.stm32cubemx/network_output/network_data.h          
/home/vitordasilvadias/.stm32cubemx/network_output/network_data.c          
/home/vitordasilvadias/.stm32cubemx/network_output/network_config.h        
/home/vitordasilvadias/.stm32cubemx/network_output/network.h               
/home/vitordasilvadias/.stm32cubemx/network_output/network.c               
